Model: "Depthwise_model"
_________________________________________________________________
Layer (type)                 Output Shape              Param #   
=================================================================
reshape (Reshape)            (None, 1, 400, 8)         0         
_________________________________________________________________
dropout (Dropout)            (None, 1, 400, 8)         0         
_________________________________________________________________
flatten (Flatten)            (None, 3200)              0         
_________________________________________________________________
dense (Dense)                (None, 1000)              3201000   
_________________________________________________________________
dropout_1 (Dropout)          (None, 1000)              0         
_________________________________________________________________
dense_1 (Dense)              (None, 200)               200200    
_________________________________________________________________
dropout_2 (Dropout)          (None, 200)               0         
_________________________________________________________________
dense_2 (Dense)              (None, 200)               40200     
_________________________________________________________________
dropout_3 (Dropout)          (None, 200)               0         
_________________________________________________________________
dense_3 (Dense)              (None, 100)               20100     
_________________________________________________________________
dropout_4 (Dropout)          (None, 100)               0         
_________________________________________________________________
dense_4 (Dense)              (None, 50)                5050      
_________________________________________________________________
dropout_5 (Dropout)          (None, 50)                0         
_________________________________________________________________
dense_5 (Dense)              (None, 6)                 306       
=================================================================
Total params: 3,466,856
Trainable params: 3,466,856
Non-trainable params: 0
_________________________________________________________________
data_dir: C:\Users\hbkm9\Documents\Projects\CYB\Experiment1\CYB004\Data
window_size: 400
delay: 400
gap_windows: None
stride: 20
freq_factor: 20
file_names: ['004_Walk01.json', '004_Wa
…
