Model: "Conv2D_Model"
_________________________________________________________________
Layer (type)                 Output Shape              Param #   
=================================================================
conv2d (Conv2D)              (None, 61, 300, 16)       19216     
_________________________________________________________________
max_pooling2d (MaxPooling2D) (None, 20, 60, 16)        0         
_________________________________________________________________
conv2d_1 (Conv2D)            (None, 20, 60, 16)        2320      
_________________________________________________________________
max_pooling2d_1 (MaxPooling2 (None, 10, 12, 16)        0         
_________________________________________________________________
dropout (Dropout)            (None, 10, 12, 16)        0         
_________________________________________________________________
flatten (Flatten)            (None, 1920)              0         
_________________________________________________________________
dense (Dense)                (None, 200)               384200    
_________________________________________________________________
batch_normalization (BatchNo (None, 200)               800       
_________________________________________________________________
activation (Activation)      (None, 200)               0         
_________________________________________________________________
dropout_1 (Dropout)          (None, 200)               0         
_________________________________________________________________
dense_1 (Dense)              (None, 200)               40200     
_________________________________________________________________
batch_normalization_1 (Batch (None, 200)               800       
_________________________________________________________________
activation_1 (Activation)    (None, 200)               0         
_________________________________________________________________
dropout_2 (Dropout)          (None, 200)               0         
_________________________________________________________________
dense_2 (Dense)              (None, 100)               20100     
_________________________________________________________________
batch_normalization_2 (Batch (None, 100)               400       
_________________________________________________________________
activation_2 (Activation)    (None, 100)               0         
_________________________________________________________________
dropout_3 (Dropout)          (None, 100)               0         
_________________________________________________________________
dense_3 (Dense)              (None, 50)                5050      
_________________________________________________________________
batch_normalization_3 (Batch (None, 50)                200       
_________________________________________________________________
activation_3 (Activation)    (None, 50)                0         
_________________________________________________________________
dropout_4 (Dropout)          (None, 50)                0         
_________________________________________________________________
dense_4 (Dense)              (None, 6)                 306       
=================================================================
Total params: 473,592
Trainable params: 472,492
Non-trainable params: 1,100
_________________________________________________________________
data_dir: C:\Users\hbkm9\Documents\Projects\CYB\Experiment1\CYB004\Data
window_size: 300
delay: 300
gap_windows: None
stride: 1
freq_factor: 20
file_names: ['004_Walk01.json', '004_Wal
…
