Model: "Depthwise_model"
_________________________________________________________________
Layer (type)                 Output Shape              Param #   
=================================================================
reshape_13 (Reshape)         (None, 1, 400, 7)         0         
_________________________________________________________________
depthwise_conv2d_26 (Depthwi (None, 1, 400, 35)        560       
_________________________________________________________________
max_pooling2d_26 (MaxPooling (None, 1, 66, 35)         0         
_________________________________________________________________
depthwise_conv2d_27 (Depthwi (None, 1, 66, 105)        420       
_________________________________________________________________
max_pooling2d_27 (MaxPooling (None, 1, 13, 105)        0         
_________________________________________________________________
dropout_78 (Dropout)         (None, 1, 13, 105)        0         
_________________________________________________________________
flatten_13 (Flatten)         (None, 1365)              0         
_________________________________________________________________
dense_78 (Dense)             (None, 1000)              1366000   
_________________________________________________________________
dropout_79 (Dropout)         (None, 1000)              0         
_________________________________________________________________
dense_79 (Dense)             (None, 200)               200200    
_________________________________________________________________
dropout_80 (Dropout)         (None, 200)               0         
_________________________________________________________________
dense_80 (Dense)             (None, 200)               40200     
_________________________________________________________________
dropout_81 (Dropout)         (None, 200)               0         
_________________________________________________________________
dense_81 (Dense)             (None, 100)               20100     
_________________________________________________________________
dropout_82 (Dropout)         (None, 100)               0         
_________________________________________________________________
dense_82 (Dense)             (None, 50)                5050      
_________________________________________________________________
dropout_83 (Dropout)         (None, 50)                0         
_________________________________________________________________
dense_83 (Dense)             (None, 6)                 306       
=================================================================
Total params: 1,632,836
Trainable params: 1,632,836
Non-trainable params: 0
_________________________________________________________________
data_dir: C:\Users\hbkm9\Documents\Projects\CYB\Experiment2\CYB101\Data
window_size: 400
delay: 400
gap_windows: None
stride: 20
freq_factor: 20
file_names: ['101_Walk01.json', '101_Wa
…
