Model: "sequential_1"
_________________________________________________________________
Layer (type)                 Output Shape              Param #   
=================================================================
conv1d_1 (Conv1D)            (None, 36, 64)            2624      
_________________________________________________________________
conv1d_2 (Conv1D)            (None, 34, 64)            12352     
_________________________________________________________________
max_pooling1d_1 (MaxPooling1 (None, 17, 64)            0         
_________________________________________________________________
dropout_1 (Dropout)          (None, 17, 64)            0         
_________________________________________________________________
flatten_1 (Flatten)          (None, 1088)              0         
_________________________________________________________________
dense_1 (Dense)              (None, 200)               217800    
_________________________________________________________________
dense_2 (Dense)              (None, 100)               20100     
_________________________________________________________________
dense_3 (Dense)              (None, 6)                 606       
=================================================================
Total params: 253,482
Trainable params: 253,482
Non-trainable params: 0
_________________________________________________________________

Date: 2019-12-05
File: convmemnet.py
MSE: -0.156 (+/-0.121)
Dropout (if applicable): 0.300
Kernel (if applicable): 5, 3
Epochs: 100, Batch size: 64
K: 5

84%

Using Files:
005_Stair11
005_Stair12
…
