Model: "sequential_1"
_________________________________________________________________
Layer (type)                 Output Shape              Param #   
=================================================================
conv1d_1 (Conv1D)            (None, 8, 8)              200       
_________________________________________________________________
conv1d_2 (Conv1D)            (None, 6, 10)             250       
_________________________________________________________________
max_pooling1d_1 (MaxPooling1 (None, 3, 10)             0         
_________________________________________________________________
dropout_1 (Dropout)          (None, 3, 10)             0         
_________________________________________________________________
flatten_1 (Flatten)          (None, 30)                0         
_________________________________________________________________
dense_1 (Dense)              (None, 100)               3100      
_________________________________________________________________
dense_2 (Dense)              (None, 6)                 606       
=================================================================
Total params: 4,156
Trainable params: 4,156
Non-trainable params: 0
_________________________________________________________________

Date: 09/01/2020 20:16:09
File: convmemnet.py
Scores: [-0.00387591 -0.00396283 -0.00383685 -0.0040274  -0.0039596 ]
MSE: -0.004 (+/-0.000)
Dropout (if applicable): 0.500
Kernel (if applicable): 3, 3
…
