Model: "sequential_2"
_________________________________________________________________
Layer (type)                 Output Shape              Param #   
=================================================================
reshape_1 (Reshape)          (None, 20, 8, 1)          0         
_________________________________________________________________
conv2d_1 (Conv2D)            (None, 18, 1, 128)        3200      
_________________________________________________________________
reshape_2 (Reshape)          (None, 18, 128)           0         
_________________________________________________________________
conv1d_1 (Conv1D)            (None, 16, 64)            24640     
_________________________________________________________________
dropout_1 (Dropout)          (None, 16, 64)            0         
_________________________________________________________________
max_pooling1d_1 (MaxPooling1 (None, 8, 64)             0         
_________________________________________________________________
flatten_1 (Flatten)          (None, 512)               0         
_________________________________________________________________
dense_1 (Dense)              (None, 100)               51300     
_________________________________________________________________
dense_2 (Dense)              (None, 100)               10100     
_________________________________________________________________
dense_3 (Dense)              (None, 6)                 606       
=================================================================
Total params: 89,846
Trainable params: 89,846
Non-trainable params: 0
_________________________________________________________________

Accuracy: 92.554% (+/-0.000)
Loss: 0.010
Dropout (if applicable): 0.300
Kernel (if applicable): 3, 3
Training: 14503
Test: 3626

Using Files:
005_Sit01
005_Sit02
005_Sit03
005_Sit04
005_Sit05
…
