Model: "sequential_1"
_________________________________________________________________
Layer (type)                 Output Shape              Param #   
=================================================================
conv1d_1 (Conv1D)            (None, 38, 64)            1600      
_________________________________________________________________
conv1d_2 (Conv1D)            (None, 32, 64)            12352     
_________________________________________________________________
max_pooling1d_1 (MaxPooling1 (None, 16, 64)            0         
_________________________________________________________________
dropout_1 (Dropout)          (None, 16, 64)            0         
_________________________________________________________________
flatten_1 (Flatten)          (None, 1024)              0         
_________________________________________________________________
dense_1 (Dense)              (None, 100)               102500    
_________________________________________________________________
dense_2 (Dense)              (None, 50)                5050      
_________________________________________________________________
dense_3 (Dense)              (None, 6)                 306       
=================================================================
Total params: 121,808
Trainable params: 121,808
Non-trainable params: 0
_________________________________________________________________

Date: 07/12/2019 19:15:38
File: convmemnet.py
Scores: [-0.11152336 -0.11547021 -0.11121026 -0.12536356 -0.11313837]
MSE: -0.115 (+/-0.005)
Dropout (if applicable): 0.300
Kernel (if applicable): 3, 3
…
