Model: "sequential_1"
_________________________________________________________________
Layer (type)                 Output Shape              Param #   
=================================================================
conv1d_1 (Conv1D)            (None, 38, 16)            400       
_________________________________________________________________
conv1d_2 (Conv1D)            (None, 32, 16)            784       
_________________________________________________________________
max_pooling1d_1 (MaxPooling1 (None, 16, 16)            0         
_________________________________________________________________
dropout_1 (Dropout)          (None, 16, 16)            0         
_________________________________________________________________
flatten_1 (Flatten)          (None, 256)               0         
_________________________________________________________________
dense_1 (Dense)              (None, 100)               25700     
_________________________________________________________________
dense_2 (Dense)              (None, 50)                5050      
_________________________________________________________________
dense_3 (Dense)              (None, 6)                 306       
=================================================================
Total params: 32,240
Trainable params: 32,240
Non-trainable params: 0
_________________________________________________________________

Date: 08/12/2019 17:04:32
File: convmemnet.py
Scores: [-0.08872391 -0.08824165 -0.07648591 -0.07607037 -0.39111975]
MSE: -0.144 (+/-0.124)
Dropout (if applicable): 0.500
Kernel (if applicable): 3, 3
…
