Model: "sequential_1"
_________________________________________________________________
Layer (type)                 Output Shape              Param #   
=================================================================
conv1d_1 (Conv1D)            (None, 38, 64)            1600      
_________________________________________________________________
conv1d_2 (Conv1D)            (None, 32, 64)            12352     
_________________________________________________________________
dropout_1 (Dropout)          (None, 32, 64)            0         
_________________________________________________________________
flatten_1 (Flatten)          (None, 2048)              0         
_________________________________________________________________
dense_1 (Dense)              (None, 200)               409800    
_________________________________________________________________
dense_2 (Dense)              (None, 50)                10050     
_________________________________________________________________
dense_3 (Dense)              (None, 6)                 306       
=================================================================
Total params: 434,108
Trainable params: 434,108
Non-trainable params: 0
_________________________________________________________________

Date: 07/12/2019 15:54:48
File: convmemnet_chi.py
Scores: [-0.12175124 -0.13131567 -0.09679185 -0.12109832 -0.15439359]
MSE: -0.125 (+/-0.019)
Dropout (if applicable): 0.300
Kernel (if applicable): 3, 3
…
