Model: "sequential_1"
_________________________________________________________________
Layer (type)                 Output Shape              Param #   
=================================================================
conv1d_1 (Conv1D)            (None, 36, 64)            2624      
_________________________________________________________________
conv1d_2 (Conv1D)            (None, 34, 64)            12352     
_________________________________________________________________
max_pooling1d_1 (MaxPooling1 (None, 17, 64)            0         
_________________________________________________________________
dropout_1 (Dropout)          (None, 17, 64)            0         
_________________________________________________________________
flatten_1 (Flatten)          (None, 1088)              0         
_________________________________________________________________
dense_1 (Dense)              (None, 100)               108900    
_________________________________________________________________
dense_2 (Dense)              (None, 100)               10100     
_________________________________________________________________
dense_3 (Dense)              (None, 6)                 606       
=================================================================
Total params: 134,582
Trainable params: 134,582
Non-trainable params: 0
_________________________________________________________________

Date: 2019-12-05
File: convmemnet.py
MSE: -0.157 (+/-0.122)
Dropout (if applicable): 0.300
Kernel (if applicable): 5, 3
Epochs: 200, Batch size: 32
K: 5

83.5%

Using Files:
005_Stair11
005_Stair12
…
