Model: "sequential_1"
_________________________________________________________________
Layer (type)                 Output Shape              Param #   
=================================================================
conv1d_1 (Conv1D)            (None, 36, 64)            2624      
_________________________________________________________________
conv1d_2 (Conv1D)            (None, 34, 64)            12352     
_________________________________________________________________
dropout_1 (Dropout)          (None, 34, 64)            0         
_________________________________________________________________
flatten_1 (Flatten)          (None, 2176)              0         
_________________________________________________________________
dense_1 (Dense)              (None, 200)               435400    
_________________________________________________________________
dense_2 (Dense)              (None, 100)               20100     
_________________________________________________________________
dense_3 (Dense)              (None, 6)                 606       
=================================================================
Total params: 471,082
Trainable params: 471,082
Non-trainable params: 0
_________________________________________________________________

Date: 2019-12-05
File: convmemnet_chi.py
MSE: -0.154 (+/-0.121)
Dropout (if applicable): 0.300
Kernel (if applicable): 5, 3
Epochs: 100, Batch size: 64
K: 5

88%

Using Files:
005_Stair11
…
