Model: "sequential_1"
_________________________________________________________________
Layer (type)                 Output Shape              Param #   
=================================================================
conv1d_1 (Conv1D)            (None, 78, 8)             200       
_________________________________________________________________
conv1d_2 (Conv1D)            (None, 76, 10)            250       
_________________________________________________________________
max_pooling1d_1 (MaxPooling1 (None, 38, 10)            0         
_________________________________________________________________
dropout_1 (Dropout)          (None, 38, 10)            0         
_________________________________________________________________
flatten_1 (Flatten)          (None, 380)               0         
_________________________________________________________________
dense_1 (Dense)              (None, 100)               38100     
_________________________________________________________________
dense_2 (Dense)              (None, 6)                 606       
=================================================================
Total params: 39,156
Trainable params: 39,156
Non-trainable params: 0
_________________________________________________________________

Date: 09/01/2020 20:05:12
File: convmemnet.py
Scores: [-0.00383935 -0.00398298 -0.00375132 -0.00398236 -0.0040478 ]
MSE: -0.004 (+/-0.000)
Dropout (if applicable): 0.500
Kernel (if applicable): 3, 3
…
