Model: "sequential_1"
_________________________________________________________________
Layer (type)                 Output Shape              Param #   
=================================================================
conv1d_1 (Conv1D)            (None, 38, 8)             200       
_________________________________________________________________
conv1d_2 (Conv1D)            (None, 32, 4)             100       
_________________________________________________________________
max_pooling1d_1 (MaxPooling1 (None, 16, 4)             0         
_________________________________________________________________
dropout_1 (Dropout)          (None, 16, 4)             0         
_________________________________________________________________
flatten_1 (Flatten)          (None, 64)                0         
_________________________________________________________________
dense_1 (Dense)              (None, 100)               6500      
_________________________________________________________________
dense_2 (Dense)              (None, 6)                 606       
=================================================================
Total params: 7,406
Trainable params: 7,406
Non-trainable params: 0
_________________________________________________________________

Date: 08/12/2019 19:53:52
File: convmemnet.py
Scores: [-0.10466764 -0.10264921 -0.10019418 -0.11060974 -0.10419961]
MSE: -0.104 (+/-0.003)
Dropout (if applicable): 0.500
Kernel (if applicable): 3, 3
…
