Model: "sequential_1"
_________________________________________________________________
Layer (type)                 Output Shape              Param #   
=================================================================
conv1d_1 (Conv1D)            (None, 38, 8)             200       
_________________________________________________________________
conv1d_2 (Conv1D)            (None, 36, 10)            250       
_________________________________________________________________
dropout_1 (Dropout)          (None, 36, 10)            0         
_________________________________________________________________
flatten_1 (Flatten)          (None, 360)               0         
_________________________________________________________________
dense_1 (Dense)              (None, 100)               36100     
_________________________________________________________________
dense_2 (Dense)              (None, 6)                 606       
=================================================================
Total params: 37,156
Trainable params: 37,156
Non-trainable params: 0
_________________________________________________________________

Date: 08/12/2019 20:56:59
File: convmemnet.py
Scores: [-0.10252499 -0.10303362 -0.10306559 -0.11235943 -0.10238971]
MSE: -0.105 (+/-0.004)
Dropout (if applicable): 0.500
Kernel (if applicable): 3, 3
…
