Model: "sequential_2"
_________________________________________________________________
Layer (type)                 Output Shape              Param #   
=================================================================
conv1d_1 (Conv1D)            (None, 18, 64)            1600      
_________________________________________________________________
conv1d_2 (Conv1D)            (None, 16, 64)            12352     
_________________________________________________________________
dropout_1 (Dropout)          (None, 16, 64)            0         
_________________________________________________________________
max_pooling1d_1 (MaxPooling1 (None, 8, 64)             0         
_________________________________________________________________
flatten_1 (Flatten)          (None, 512)               0         
_________________________________________________________________
dense_1 (Dense)              (None, 100)               51300     
_________________________________________________________________
dense_2 (Dense)              (None, 6)                 606       
=================================================================
Total params: 65,858
Trainable params: 65,858
Non-trainable params: 0
_________________________________________________________________

Accuracy: 75.155% (+/-0.000)
Training: 10300
Test: 2576

Using Files:005_Walk01
005_Walk02
005_Walk03
005_Walk04
005_Walk05
005_Walk06
005_Walk07
005_Walk08
005_Walk09
005_Walk10
005_Walk11
…
