Model: "sequential_1"
_________________________________________________________________
Layer (type)                 Output Shape              Param #   
=================================================================
conv1d_1 (Conv1D)            (None, 38, 16)            400       
_________________________________________________________________
conv1d_2 (Conv1D)            (None, 32, 16)            784       
_________________________________________________________________
max_pooling1d_1 (MaxPooling1 (None, 16, 16)            0         
_________________________________________________________________
dropout_1 (Dropout)          (None, 16, 16)            0         
_________________________________________________________________
flatten_1 (Flatten)          (None, 256)               0         
_________________________________________________________________
dense_1 (Dense)              (None, 100)               25700     
_________________________________________________________________
dense_2 (Dense)              (None, 6)                 606       
=================================================================
Total params: 27,490
Trainable params: 27,490
Non-trainable params: 0
_________________________________________________________________

Date: 08/12/2019 18:00:52
File: convmemnet.py
Scores: [-0.10119775 -0.0975706  -0.09844411 -0.10589757 -0.10154434]
MSE: -0.101 (+/-0.003)
Dropout (if applicable): 0.500
Kernel (if applicable): 3, 3
…
