Model: "sequential_1"
_________________________________________________________________
Layer (type)                 Output Shape              Param #   
=================================================================
conv1d_1 (Conv1D)            (None, 48, 8)             200       
_________________________________________________________________
conv1d_2 (Conv1D)            (None, 46, 10)            250       
_________________________________________________________________
max_pooling1d_1 (MaxPooling1 (None, 23, 10)            0         
_________________________________________________________________
dropout_1 (Dropout)          (None, 23, 10)            0         
_________________________________________________________________
flatten_1 (Flatten)          (None, 230)               0         
_________________________________________________________________
dense_1 (Dense)              (None, 100)               23100     
_________________________________________________________________
dense_2 (Dense)              (None, 6)                 606       
=================================================================
Total params: 24,156
Trainable params: 24,156
Non-trainable params: 0
_________________________________________________________________

Date: 09/01/2020 20:31:58
File: convmemnet.py
Scores: [-0.00403711 -0.00408231 -0.00375457 -0.00408558 -0.00397892]
MSE: -0.004 (+/-0.000)
Dropout (if applicable): 0.500
Kernel (if applicable): 3, 3
…
