Model: "sequential_2"
_________________________________________________________________
Layer (type)                 Output Shape              Param #   
=================================================================
flatten_1 (Flatten)          (None, 160)               0         
_________________________________________________________________
dense_1 (Dense)              (None, 100)               16100     
_________________________________________________________________
dense_2 (Dense)              (None, 50)                5050      
_________________________________________________________________
dense_3 (Dense)              (None, 50)                2550      
_________________________________________________________________
dense_4 (Dense)              (None, 50)                2550      
_________________________________________________________________
dense_5 (Dense)              (None, 6)                 306       
=================================================================
Total params: 26,556
Trainable params: 26,556
Non-trainable params: 0
_________________________________________________________________

Accuracy: 85.753% (+/-0.000)
Training: 10300
Test: 2576

Using Files:
005_Walk01
005_Walk02
005_Walk03
005_Walk04
005_Walk05
005_Walk06
005_Walk07
005_Walk08
005_Walk09
005_Walk10
005_Walk11
…
