Model: "sequential_1"
_________________________________________________________________
Layer (type)                 Output Shape              Param #   
=================================================================
conv1d_1 (Conv1D)            (None, 38, 64)            1600      
_________________________________________________________________
conv1d_2 (Conv1D)            (None, 32, 64)            12352     
_________________________________________________________________
max_pooling1d_1 (MaxPooling1 (None, 16, 64)            0         
_________________________________________________________________
dropout_1 (Dropout)          (None, 16, 64)            0         
_________________________________________________________________
flatten_1 (Flatten)          (None, 1024)              0         
_________________________________________________________________
dense_1 (Dense)              (None, 200)               205000    
_________________________________________________________________
dense_2 (Dense)              (None, 50)                10050     
_________________________________________________________________
dense_3 (Dense)              (None, 6)                 306       
=================================================================
Total params: 229,308
Trainable params: 229,308
Non-trainable params: 0
_________________________________________________________________

Date: 07/12/2019 18:20:36
File: convmemnet_chi.py
Scores: [-0.1278507  -0.13498687 -0.09258621 -0.12078166 -0.14672326]
MSE: -0.125 (+/-0.018)
Dropout (if applicable): 0.300
Kernel (if applicable): 3, 3
…
