Model: "sequential_1"
_________________________________________________________________
Layer (type)                 Output Shape              Param #   
=================================================================
conv1d_1 (Conv1D)            (None, 38, 16)            400       
_________________________________________________________________
conv1d_2 (Conv1D)            (None, 36, 10)            490       
_________________________________________________________________
max_pooling1d_1 (MaxPooling1 (None, 18, 10)            0         
_________________________________________________________________
dropout_1 (Dropout)          (None, 18, 10)            0         
_________________________________________________________________
flatten_1 (Flatten)          (None, 180)               0         
_________________________________________________________________
dense_1 (Dense)              (None, 100)               18100     
_________________________________________________________________
dense_2 (Dense)              (None, 6)                 606       
=================================================================
Total params: 19,596
Trainable params: 19,596
Non-trainable params: 0
_________________________________________________________________

Date: 09/12/2019 13:18:31
File: convmemnet_ecdf.py
Scores: [-0.10534876 -0.10347851 -0.10028022 -0.10984492 -0.10001881]
MSE: -0.104 (+/-0.004)
Dropout (if applicable): 0.500
Kernel (if applicable): 3, 3
…
