Model: "sequential_1"
_________________________________________________________________
Layer (type)                 Output Shape              Param #   
=================================================================
conv1d_1 (Conv1D)            (None, 38, 16)            400       
_________________________________________________________________
conv1d_2 (Conv1D)            (None, 32, 16)            784       
_________________________________________________________________
max_pooling1d_1 (MaxPooling1 (None, 16, 16)            0         
_________________________________________________________________
dropout_1 (Dropout)          (None, 16, 16)            0         
_________________________________________________________________
flatten_1 (Flatten)          (None, 256)               0         
_________________________________________________________________
dense_1 (Dense)              (None, 100)               25700     
_________________________________________________________________
dense_2 (Dense)              (None, 6)                 606       
=================================================================
Total params: 27,490
Trainable params: 27,490
Non-trainable params: 0
_________________________________________________________________

Date: 08/12/2019 18:16:48
File: convmemnet_chi.py
Scores: [-0.10466351 -0.10137523 -0.10107216 -0.10835207 -0.10310563]
MSE: -0.104 (+/-0.003)
Dropout (if applicable): 0.500
Kernel (if applicable): 3, 3
…
