Model: "sequential_1"
_________________________________________________________________
Layer (type)                 Output Shape              Param #   
=================================================================
conv1d_1 (Conv1D)            (None, 38, 64)            1600      
_________________________________________________________________
conv1d_2 (Conv1D)            (None, 36, 64)            12352     
_________________________________________________________________
max_pooling1d_1 (MaxPooling1 (None, 18, 64)            0         
_________________________________________________________________
dropout_1 (Dropout)          (None, 18, 64)            0         
_________________________________________________________________
flatten_1 (Flatten)          (None, 1152)              0         
_________________________________________________________________
dense_1 (Dense)              (None, 200)               230600    
_________________________________________________________________
dense_2 (Dense)              (None, 50)                10050     
_________________________________________________________________
dense_3 (Dense)              (None, 6)                 306       
=================================================================
Total params: 254,908
Trainable params: 254,908
Non-trainable params: 0
_________________________________________________________________

Date: 07/12/2019 16:45:18
File: convmemnet_chi.py
Scores: [-0.12354383 -0.13354629 -0.08903962 -0.12344869 -0.15613841]
MSE: -0.125 (+/-0.022)
Dropout (if applicable): 0.300
Kernel (if applicable): 3, 3
…
