Model: "sequential_1"
_________________________________________________________________
Layer (type)                 Output Shape              Param #   
=================================================================
conv1d_1 (Conv1D)            (None, 58, 8)             200       
_________________________________________________________________
conv1d_2 (Conv1D)            (None, 56, 10)            250       
_________________________________________________________________
max_pooling1d_1 (MaxPooling1 (None, 28, 10)            0         
_________________________________________________________________
dropout_1 (Dropout)          (None, 28, 10)            0         
_________________________________________________________________
flatten_1 (Flatten)          (None, 280)               0         
_________________________________________________________________
dense_1 (Dense)              (None, 100)               28100     
_________________________________________________________________
dense_2 (Dense)              (None, 6)                 606       
=================================================================
Total params: 29,156
Trainable params: 29,156
Non-trainable params: 0
_________________________________________________________________

Date: 09/01/2020 20:11:00
File: convmemnet.py
Scores: [-0.00387181 -0.00397653 -0.00370745 -0.00390286 -0.00405929]
MSE: -0.004 (+/-0.000)
Dropout (if applicable): 0.500
Kernel (if applicable): 3, 3
…
