Model: "sequential_1"
_________________________________________________________________
Layer (type)                 Output Shape              Param #   
=================================================================
conv1d_1 (Conv1D)            (None, 36, 64)            2624      
_________________________________________________________________
conv1d_2 (Conv1D)            (None, 34, 64)            12352     
_________________________________________________________________
dropout_1 (Dropout)          (None, 34, 64)            0         
_________________________________________________________________
flatten_1 (Flatten)          (None, 2176)              0         
_________________________________________________________________
dense_1 (Dense)              (None, 200)               435400    
_________________________________________________________________
dense_2 (Dense)              (None, 50)                10050     
_________________________________________________________________
dense_3 (Dense)              (None, 6)                 306       
=================================================================
Total params: 460,732
Trainable params: 460,732
Non-trainable params: 0
_________________________________________________________________

Date: 06/12/2019 18:47:06
File: convmemnet_chi.py
Scores: [-0.03527802 -0.03352881 -0.03785439 -0.02796846 -0.04469701]
MSE: -0.036 (+/-0.005)
Dropout (if applicable): 0.300
Kernel (if applicable): 5, 3
…
