Model: "Depthwise_model"
_________________________________________________________________
Layer (type)                 Output Shape              Param #   
=================================================================
reshape_19 (Reshape)         (None, 1, 1000, 8)        0         
_________________________________________________________________
depthwise_conv2d_38 (Depthwi (None, 1, 1000, 40)       640       
_________________________________________________________________
max_pooling2d_38 (MaxPooling (None, 1, 166, 40)        0         
_________________________________________________________________
depthwise_conv2d_39 (Depthwi (None, 1, 166, 120)       480       
_________________________________________________________________
max_pooling2d_39 (MaxPooling (None, 1, 33, 120)        0         
_________________________________________________________________
dropout_114 (Dropout)        (None, 1, 33, 120)        0         
_________________________________________________________________
flatten_19 (Flatten)         (None, 3960)              0         
_________________________________________________________________
dense_114 (Dense)            (None, 1000)              3961000   
_________________________________________________________________
dropout_115 (Dropout)        (None, 1000)              0         
_________________________________________________________________
dense_115 (Dense)            (None, 200)               200200    
_________________________________________________________________
dropout_116 (Dropout)        (None, 200)               0         
_________________________________________________________________
dense_116 (Dense)            (None, 200)               40200     
_________________________________________________________________
dropout_117 (Dropout)        (None, 200)               0         
_________________________________________________________________
dense_117 (Dense)            (None, 100)               20100     
_________________________________________________________________
dropout_118 (Dropout)        (None, 100)               0         
_________________________________________________________________
dense_118 (Dense)            (None, 50)                5050      
_________________________________________________________________
dropout_119 (Dropout)        (None, 50)                0         
_________________________________________________________________
dense_119 (Dense)            (None, 6)                 306       
=================================================================
Total params: 4,227,976
Trainable params: 4,227,976
Non-trainable params: 0
_________________________________________________________________
data_dir: C:\Users\hbkm9\Documents\Projects\CYB\Experiment1\CYB005\Data
window_size: 1000
delay: 1000
gap_windows: None
stride: 20
freq_factor: 20
file_names: ['005_DownStair12.json', '005_DownStair14.json', '005_DownStair16.json', '005_DownStair18.json', '005_DownStair20.json', '005_DownStair22.json', '005_DownStair24.json', '005_DownStair26.json', '005_DownStair28.json', '005_DownStair30.json']
…
