Model: "Depthwise_model_classifier"
_________________________________________________________________
Layer (type)                 Output Shape              Param #   
=================================================================
reshape_16 (Reshape)         (None, 1, 1000, 8)        0         
_________________________________________________________________
depthwise_conv2d_32 (Depthwi (None, 1, 1000, 40)       640       
_________________________________________________________________
max_pooling2d_32 (MaxPooling (None, 1, 166, 40)        0         
_________________________________________________________________
depthwise_conv2d_33 (Depthwi (None, 1, 166, 120)       480       
_________________________________________________________________
max_pooling2d_33 (MaxPooling (None, 1, 33, 120)        0         
_________________________________________________________________
dropout_96 (Dropout)         (None, 1, 33, 120)        0         
_________________________________________________________________
flatten_16 (Flatten)         (None, 3960)              0         
_________________________________________________________________
dense_96 (Dense)             (None, 1000)              3961000   
_________________________________________________________________
dropout_97 (Dropout)         (None, 1000)              0         
_________________________________________________________________
dense_97 (Dense)             (None, 100)               100100    
_________________________________________________________________
dropout_98 (Dropout)         (None, 100)               0         
_________________________________________________________________
dense_98 (Dense)             (None, 100)               10100     
_________________________________________________________________
dropout_99 (Dropout)         (None, 100)               0         
_________________________________________________________________
dense_99 (Dense)             (None, 50)                5050      
_________________________________________________________________
dropout_100 (Dropout)        (None, 50)                0         
_________________________________________________________________
dense_100 (Dense)            (None, 20)                1020      
_________________________________________________________________
dropout_101 (Dropout)        (None, 20)                0         
_________________________________________________________________
dense_101 (Dense)            (None, 3)                 63        
=================================================================
Total params: 4,078,453
Trainable params: 4,078,453
Non-trainable params: 0
_________________________________________________________________
data_dir: C:\Users\hbkm9\Documents\Projects\CYB\Experiment2\CYB101\Data_p
window_size: 1000
delay: 1000
gap_windows: None
stride: 20
freq_factor: 20
file_names: ['101_ParamWalk01.json
…
