Model: "Depthwise_model_classifier"
_________________________________________________________________
Layer (type)                 Output Shape              Param #   
=================================================================
reshape_13 (Reshape)         (None, 1, 1000, 8)        0         
_________________________________________________________________
depthwise_conv2d_26 (Depthwi (None, 1, 1000, 40)       640       
_________________________________________________________________
max_pooling2d_26 (MaxPooling (None, 1, 166, 40)        0         
_________________________________________________________________
depthwise_conv2d_27 (Depthwi (None, 1, 166, 120)       480       
_________________________________________________________________
max_pooling2d_27 (MaxPooling (None, 1, 33, 120)        0         
_________________________________________________________________
dropout_52 (Dropout)         (None, 1, 33, 120)        0         
_________________________________________________________________
flatten_13 (Flatten)         (None, 3960)              0         
_________________________________________________________________
dense_52 (Dense)             (None, 50)                198050    
_________________________________________________________________
dropout_53 (Dropout)         (None, 50)                0         
_________________________________________________________________
dense_53 (Dense)             (None, 30)                1530      
_________________________________________________________________
dropout_54 (Dropout)         (None, 30)                0         
_________________________________________________________________
dense_54 (Dense)             (None, 20)                620       
_________________________________________________________________
dropout_55 (Dropout)         (None, 20)                0         
_________________________________________________________________
dense_55 (Dense)             (None, 5)                 105       
=================================================================
Total params: 201,425
Trainable params: 201,425
Non-trainable params: 0
_________________________________________________________________
data_dir: C:\Users\hbkm9\Documents\Projects\CYB\Experiment2\CYB101\Data
window_size: 1000
delay: 1000
gap_windows: None
stride: 20
freq_factor: 20
file_names: ['101_DownSit01.json', '101_D
…
