Model: "Depthwise_model"
_________________________________________________________________
Layer (type)                 Output Shape              Param #   
=================================================================
reshape_2 (Reshape)          (None, 1, 400, 8)         0         
_________________________________________________________________
depthwise_conv2d_4 (Depthwis (None, 1, 400, 40)        640       
_________________________________________________________________
max_pooling2d_4 (MaxPooling2 (None, 1, 66, 40)         0         
_________________________________________________________________
depthwise_conv2d_5 (Depthwis (None, 1, 66, 120)        480       
_________________________________________________________________
max_pooling2d_5 (MaxPooling2 (None, 1, 13, 120)        0         
_________________________________________________________________
dropout_12 (Dropout)         (None, 1, 13, 120)        0         
_________________________________________________________________
flatten_2 (Flatten)          (None, 1560)              0         
_________________________________________________________________
dense_12 (Dense)             (None, 1000)              1561000   
_________________________________________________________________
batch_normalization_10 (Batc (None, 1000)              4000      
_________________________________________________________________
activation_10 (Activation)   (None, 1000)              0         
_________________________________________________________________
dropout_13 (Dropout)         (None, 1000)              0         
_________________________________________________________________
dense_13 (Dense)             (None, 200)               200200    
_________________________________________________________________
batch_normalization_11 (Batc (None, 200)               800       
_________________________________________________________________
activation_11 (Activation)   (None, 200)               0         
_________________________________________________________________
dropout_14 (Dropout)         (None, 200)               0         
_________________________________________________________________
dense_14 (Dense)             (None, 200)               40200     
_________________________________________________________________
batch_normalization_12 (Batc (None, 200)               800       
_________________________________________________________________
activation_12 (Activation)   (None, 200)               0         
_________________________________________________________________
dropout_15 (Dropout)         (None, 200)               0         
_________________________________________________________________
dense_15 (Dense)             (None, 100)               20100     
_________________________________________________________________
batch_normalization_13 (Batc (None, 100)               400       
_________________________________________________________________
activation_13 (Activation)   (None, 100)               0         
_________________________________________________________________
dropout_16 (Dropout)         (None, 100)               0         
_________________________________________________________________
dense_16 (Dense)             (None, 50)                5050      
_________________________________________________________________
batch_normalization_14 (Batc (None, 50)                200       
_________________________________________________________________
activation_14 (Activation)   (None, 50)                0         
_________________________________________________________________
dropout_17 (Dropout)         (None, 50)                0         
_________________________________________________________________
dense_17 (Dense)             (None, 6)                 306       
=================================================================
Total params: 1,834,176
Trainable params: 1,831,076
Non-trainable params: 3,100
_________________________________________________________________
data_dir: C:\Users\hbkm9\Documents\Projects\CYB\Experiment1\CYB004\Data
window_size: 400
delay: 400
gap_windows: None
stride: 20
freq_factor: 20
file_names: ['004_Walk01.json', '00
…
