Model: "Depthwise_model_classifier"
_________________________________________________________________
Layer (type)                 Output Shape              Param #   
=================================================================
reshape_10 (Reshape)         (None, 1, 1000, 8)        0         
_________________________________________________________________
depthwise_conv2d_20 (Depthwi (None, 1, 1000, 40)       640       
_________________________________________________________________
max_pooling2d_20 (MaxPooling (None, 1, 166, 40)        0         
_________________________________________________________________
depthwise_conv2d_21 (Depthwi (None, 1, 166, 120)       480       
_________________________________________________________________
max_pooling2d_21 (MaxPooling (None, 1, 33, 120)        0         
_________________________________________________________________
dropout_60 (Dropout)         (None, 1, 33, 120)        0         
_________________________________________________________________
flatten_10 (Flatten)         (None, 3960)              0         
_________________________________________________________________
dense_60 (Dense)             (None, 1000)              3961000   
_________________________________________________________________
dropout_61 (Dropout)         (None, 1000)              0         
_________________________________________________________________
dense_61 (Dense)             (None, 100)               100100    
_________________________________________________________________
dropout_62 (Dropout)         (None, 100)               0         
_________________________________________________________________
dense_62 (Dense)             (None, 100)               10100     
_________________________________________________________________
dropout_63 (Dropout)         (None, 100)               0         
_________________________________________________________________
dense_63 (Dense)             (None, 50)                5050      
_________________________________________________________________
dropout_64 (Dropout)         (None, 50)                0         
_________________________________________________________________
dense_64 (Dense)             (None, 20)                1020      
_________________________________________________________________
dropout_65 (Dropout)         (None, 20)                0         
_________________________________________________________________
dense_65 (Dense)             (None, 3)                 63        
=================================================================
Total params: 4,078,453
Trainable params: 4,078,453
Non-trainable params: 0
_________________________________________________________________
data_dir: C:\Users\hbkm9\Documents\Projects\CYB\Experiment1\CYB005\Data_p
window_size: 1000
delay: 1000
gap_windows: None
stride: 20
freq_factor: 20
file_names: ['005_ParamWalk01.json
…
