Model: "Depthwise_model"
_________________________________________________________________
Layer (type)                 Output Shape              Param #   
=================================================================
reshape_5 (Reshape)          (None, 1, 400, 7)         0         
_________________________________________________________________
depthwise_conv2d_10 (Depthwi (None, 1, 400, 35)        560       
_________________________________________________________________
max_pooling2d_10 (MaxPooling (None, 1, 66, 35)         0         
_________________________________________________________________
depthwise_conv2d_11 (Depthwi (None, 1, 66, 105)        420       
_________________________________________________________________
max_pooling2d_11 (MaxPooling (None, 1, 13, 105)        0         
_________________________________________________________________
dropout_30 (Dropout)         (None, 1, 13, 105)        0         
_________________________________________________________________
flatten_5 (Flatten)          (None, 1365)              0         
_________________________________________________________________
dense_30 (Dense)             (None, 1000)              1366000   
_________________________________________________________________
dropout_31 (Dropout)         (None, 1000)              0         
_________________________________________________________________
dense_31 (Dense)             (None, 200)               200200    
_________________________________________________________________
dropout_32 (Dropout)         (None, 200)               0         
_________________________________________________________________
dense_32 (Dense)             (None, 200)               40200     
_________________________________________________________________
dropout_33 (Dropout)         (None, 200)               0         
_________________________________________________________________
dense_33 (Dense)             (None, 100)               20100     
_________________________________________________________________
dropout_34 (Dropout)         (None, 100)               0         
_________________________________________________________________
dense_34 (Dense)             (None, 50)                5050      
_________________________________________________________________
dropout_35 (Dropout)         (None, 50)                0         
_________________________________________________________________
dense_35 (Dense)             (None, 6)                 306       
=================================================================
Total params: 1,632,836
Trainable params: 1,632,836
Non-trainable params: 0
_________________________________________________________________
data_dir: C:\Users\hbkm9\Documents\Projects\CYB\Experiment1\CYB004\Data
window_size: 400
delay: 400
gap_windows: None
stride: 20
freq_factor: 20
file_names: ['004_Walk01.json', '004_Wa
…
