Model: "sequential_2"
_________________________________________________________________
Layer (type)                 Output Shape              Param #   
=================================================================
conv1d_1 (Conv1D)            (None, 18, 64)            1600      
_________________________________________________________________
conv1d_2 (Conv1D)            (None, 16, 64)            12352     
_________________________________________________________________
dropout_1 (Dropout)          (None, 16, 64)            0         
_________________________________________________________________
flatten_1 (Flatten)          (None, 1024)              0         
_________________________________________________________________
dense_1 (Dense)              (None, 100)               102500    
_________________________________________________________________
dense_2 (Dense)              (None, 100)               10100     
_________________________________________________________________
dense_3 (Dense)              (None, 30)                3030      
_________________________________________________________________
dense_4 (Dense)              (None, 6)                 186       
=================================================================
Total params: 129,768
Trainable params: 129,768
Non-trainable params: 0
_________________________________________________________________

Accuracy: 76.210% (+/-0.000)
Training: 22140
Test: 5536

Using Files:004_Sit01
004_Sit02
004_Sit03
004_Sit04
004_Sit05
004_Sit06
004_Sit07
004_Sit08
004_Sit09
004_Sit10
004_Sit11
004_Sit12
…
