Model: "sequential_2"
_________________________________________________________________
Layer (type)                 Output Shape              Param #   
=================================================================
conv1d_1 (Conv1D)            (None, 18, 64)            1600      
_________________________________________________________________
conv1d_2 (Conv1D)            (None, 16, 64)            12352     
_________________________________________________________________
max_pooling1d_1 (MaxPooling1 (None, 8, 64)             0         
_________________________________________________________________
dropout_1 (Dropout)          (None, 8, 64)             0         
_________________________________________________________________
flatten_1 (Flatten)          (None, 512)               0         
_________________________________________________________________
dense_1 (Dense)              (None, 100)               51300     
_________________________________________________________________
dense_2 (Dense)              (None, 100)               10100     
_________________________________________________________________
dense_3 (Dense)              (None, 6)                 606       
=================================================================
Total params: 75,958
Trainable params: 75,958
Non-trainable params: 0
_________________________________________________________________

Accuracy: 72.670% (+/-0.000)
Loss: 0.083
Dropout (if applicable): 0.300
Kernel (if applicable): 3, 3
Training: 22140
Test: 5536

Using Files:
004_Sit01
004_Sit02
004_Sit03
004_Sit04
004_Sit05
…
