Model: "Conv2D_Model"
_________________________________________________________________
Layer (type)                 Output Shape              Param #   
=================================================================
reshape_22 (Reshape)         (None, 1, 1000, 8)        0         
_________________________________________________________________
conv2d_44 (Conv2D)           (None, 1, 1000, 40)       4840      
_________________________________________________________________
max_pooling2d_44 (MaxPooling (None, 1, 166, 40)        0         
_________________________________________________________________
conv2d_45 (Conv2D)           (None, 1, 166, 120)       14520     
_________________________________________________________________
max_pooling2d_45 (MaxPooling (None, 1, 33, 120)        0         
_________________________________________________________________
dropout_132 (Dropout)        (None, 1, 33, 120)        0         
_________________________________________________________________
flatten_22 (Flatten)         (None, 3960)              0         
_________________________________________________________________
dense_132 (Dense)            (None, 1000)              3961000   
_________________________________________________________________
dropout_133 (Dropout)        (None, 1000)              0         
_________________________________________________________________
dense_133 (Dense)            (None, 200)               200200    
_________________________________________________________________
dropout_134 (Dropout)        (None, 200)               0         
_________________________________________________________________
dense_134 (Dense)            (None, 200)               40200     
_________________________________________________________________
dropout_135 (Dropout)        (None, 200)               0         
_________________________________________________________________
dense_135 (Dense)            (None, 100)               20100     
_________________________________________________________________
dropout_136 (Dropout)        (None, 100)               0         
_________________________________________________________________
dense_136 (Dense)            (None, 50)                5050      
_________________________________________________________________
dropout_137 (Dropout)        (None, 50)                0         
_________________________________________________________________
dense_137 (Dense)            (None, 6)                 306       
=================================================================
Total params: 4,246,216
Trainable params: 4,246,216
Non-trainable params: 0
_________________________________________________________________
data_dir: C:\Users\hbkm9\Documents\Projects\CYB\Experiment2\CYB102\Data
window_size: 1000
delay: 1000
gap_windows: None
stride: 20
freq_factor: 20
file_names: ['102_Walk01.json', '102_
…
