Model: "Depthwise_model"
_________________________________________________________________
Layer (type)                 Output Shape              Param #   
=================================================================
reshape (Reshape)            (None, 1, 1000, 8)        0         
_________________________________________________________________
depthwise_conv2d (DepthwiseC (None, 1, 1000, 40)       640       
_________________________________________________________________
max_pooling2d (MaxPooling2D) (None, 1, 166, 40)        0         
_________________________________________________________________
depthwise_conv2d_1 (Depthwis (None, 1, 166, 120)       480       
_________________________________________________________________
max_pooling2d_1 (MaxPooling2 (None, 1, 33, 120)        0         
_________________________________________________________________
dropout (Dropout)            (None, 1, 33, 120)        0         
_________________________________________________________________
flatten (Flatten)            (None, 3960)              0         
_________________________________________________________________
dense (Dense)                (None, 1000)              3961000   
_________________________________________________________________
batch_normalization (BatchNo (None, 1000)              4000      
_________________________________________________________________
activation (Activation)      (None, 1000)              0         
_________________________________________________________________
dropout_1 (Dropout)          (None, 1000)              0         
_________________________________________________________________
dense_1 (Dense)              (None, 200)               200200    
_________________________________________________________________
batch_normalization_1 (Batch (None, 200)               800       
_________________________________________________________________
activation_1 (Activation)    (None, 200)               0         
_________________________________________________________________
dropout_2 (Dropout)          (None, 200)               0         
_________________________________________________________________
dense_2 (Dense)              (None, 200)               40200     
_________________________________________________________________
batch_normalization_2 (Batch (None, 200)               800       
_________________________________________________________________
activation_2 (Activation)    (None, 200)               0         
_________________________________________________________________
dropout_3 (Dropout)          (None, 200)               0         
_________________________________________________________________
dense_3 (Dense)              (None, 100)               20100     
_________________________________________________________________
batch_normalization_3 (Batch (None, 100)               400       
_________________________________________________________________
activation_3 (Activation)    (None, 100)               0         
_________________________________________________________________
dropout_4 (Dropout)          (None, 100)               0         
_________________________________________________________________
dense_4 (Dense)              (None, 50)                5050      
_________________________________________________________________
batch_normalization_4 (Batch (None, 50)                200       
_________________________________________________________________
activation_4 (Activation)    (None, 50)                0         
_________________________________________________________________
dropout_5 (Dropout)          (None, 50)                0         
_________________________________________________________________
dense_5 (Dense)              (None, 6)                 306       
=================================================================
Total params: 4,234,176
Trainable params: 4,231,076
Non-trainable params: 3,100
_________________________________________________________________
data_dir: C:\Users\hbkm9\Documents\Projects\CYB\Experiment2\CYB102\Data
window_size: 1000
delay: 1000
gap_windows: None
stride: 20
freq_factor: 20
file_names: ['102_Walk01.json', '
…
