Model: "Depthwise_model"
_________________________________________________________________
Layer (type)                 Output Shape              Param #   
=================================================================
reshape_5 (Reshape)          (None, 1, 1000, 8)        0         
_________________________________________________________________
dropout_35 (Dropout)         (None, 1, 1000, 8)        0         
_________________________________________________________________
flatten_5 (Flatten)          (None, 8000)              0         
_________________________________________________________________
dense_35 (Dense)             (None, 1000)              8001000   
_________________________________________________________________
dropout_36 (Dropout)         (None, 1000)              0         
_________________________________________________________________
dense_36 (Dense)             (None, 1000)              1001000   
_________________________________________________________________
dropout_37 (Dropout)         (None, 1000)              0         
_________________________________________________________________
dense_37 (Dense)             (None, 200)               200200    
_________________________________________________________________
dropout_38 (Dropout)         (None, 200)               0         
_________________________________________________________________
dense_38 (Dense)             (None, 200)               40200     
_________________________________________________________________
dropout_39 (Dropout)         (None, 200)               0         
_________________________________________________________________
dense_39 (Dense)             (None, 100)               20100     
_________________________________________________________________
dropout_40 (Dropout)         (None, 100)               0         
_________________________________________________________________
dense_40 (Dense)             (None, 50)                5050      
_________________________________________________________________
dropout_41 (Dropout)         (None, 50)                0         
_________________________________________________________________
dense_41 (Dense)             (None, 6)                 306       
=================================================================
Total params: 9,267,856
Trainable params: 9,267,856
Non-trainable params: 0
_________________________________________________________________
data_dir: C:\Users\hbkm9\Documents\Projects\CYB\Experiment1\CYB005\Data
window_size: 1000
delay: 1000
gap_windows: None
stride: 20
freq_factor: 20
file_names: ['005_Walk01.json', '005_
…
