Model: "Depthwise_model_classifier"
_________________________________________________________________
Layer (type)                 Output Shape              Param #   
=================================================================
reshape_17 (Reshape)         (None, 1, 1000, 8)        0         
_________________________________________________________________
depthwise_conv2d_34 (Depthwi (None, 1, 1000, 40)       640       
_________________________________________________________________
max_pooling2d_34 (MaxPooling (None, 1, 166, 40)        0         
_________________________________________________________________
depthwise_conv2d_35 (Depthwi (None, 1, 166, 120)       480       
_________________________________________________________________
max_pooling2d_35 (MaxPooling (None, 1, 33, 120)        0         
_________________________________________________________________
dropout_102 (Dropout)        (None, 1, 33, 120)        0         
_________________________________________________________________
flatten_17 (Flatten)         (None, 3960)              0         
_________________________________________________________________
dense_102 (Dense)            (None, 1000)              3961000   
_________________________________________________________________
dropout_103 (Dropout)        (None, 1000)              0         
_________________________________________________________________
dense_103 (Dense)            (None, 100)               100100    
_________________________________________________________________
dropout_104 (Dropout)        (None, 100)               0         
_________________________________________________________________
dense_104 (Dense)            (None, 100)               10100     
_________________________________________________________________
dropout_105 (Dropout)        (None, 100)               0         
_________________________________________________________________
dense_105 (Dense)            (None, 50)                5050      
_________________________________________________________________
dropout_106 (Dropout)        (None, 50)                0         
_________________________________________________________________
dense_106 (Dense)            (None, 20)                1020      
_________________________________________________________________
dropout_107 (Dropout)        (None, 20)                0         
_________________________________________________________________
dense_107 (Dense)            (None, 3)                 63        
=================================================================
Total params: 4,078,453
Trainable params: 4,077,333
Non-trainable params: 1,120
_________________________________________________________________
data_dir: C:\Users\hbkm9\Documents\Projects\CYB\Experiment2\CYB101\Data_p
window_size: 1000
delay: 1000
gap_windows: None
stride: 20
freq_factor: 20
file_names: ['101_ParamWalk01.
…
