Model: "Depthwise_model"
_________________________________________________________________
Layer (type)                 Output Shape              Param #   
=================================================================
reshape_10 (Reshape)         (None, 1, 400, 6)         0         
_________________________________________________________________
depthwise_conv2d_20 (Depthwi (None, 1, 400, 30)        480       
_________________________________________________________________
max_pooling2d_20 (MaxPooling (None, 1, 66, 30)         0         
_________________________________________________________________
depthwise_conv2d_21 (Depthwi (None, 1, 66, 90)         360       
_________________________________________________________________
max_pooling2d_21 (MaxPooling (None, 1, 13, 90)         0         
_________________________________________________________________
dropout_60 (Dropout)         (None, 1, 13, 90)         0         
_________________________________________________________________
flatten_10 (Flatten)         (None, 1170)              0         
_________________________________________________________________
dense_60 (Dense)             (None, 1000)              1171000   
_________________________________________________________________
dropout_61 (Dropout)         (None, 1000)              0         
_________________________________________________________________
dense_61 (Dense)             (None, 200)               200200    
_________________________________________________________________
dropout_62 (Dropout)         (None, 200)               0         
_________________________________________________________________
dense_62 (Dense)             (None, 200)               40200     
_________________________________________________________________
dropout_63 (Dropout)         (None, 200)               0         
_________________________________________________________________
dense_63 (Dense)             (None, 100)               20100     
_________________________________________________________________
dropout_64 (Dropout)         (None, 100)               0         
_________________________________________________________________
dense_64 (Dense)             (None, 50)                5050      
_________________________________________________________________
dropout_65 (Dropout)         (None, 50)                0         
_________________________________________________________________
dense_65 (Dense)             (None, 6)                 306       
=================================================================
Total params: 1,437,696
Trainable params: 1,437,696
Non-trainable params: 0
_________________________________________________________________
data_dir: C:\Users\hbkm9\Documents\Projects\CYB\Experiment1\CYB005\Data
window_size: 400
delay: 400
gap_windows: None
stride: 20
freq_factor: 20
file_names: ['005_Walk01.json', '005_Wa
…
