Model: "Depthwise_model"
_________________________________________________________________
Layer (type)                 Output Shape              Param #   
=================================================================
reshape_17 (Reshape)         (None, 1, 1000, 8)        0         
_________________________________________________________________
depthwise_conv2d_34 (Depthwi (None, 1, 1000, 40)       640       
_________________________________________________________________
max_pooling2d_34 (MaxPooling (None, 1, 166, 40)        0         
_________________________________________________________________
depthwise_conv2d_35 (Depthwi (None, 1, 166, 120)       480       
_________________________________________________________________
max_pooling2d_35 (MaxPooling (None, 1, 33, 120)        0         
_________________________________________________________________
dropout_102 (Dropout)        (None, 1, 33, 120)        0         
_________________________________________________________________
flatten_17 (Flatten)         (None, 3960)              0         
_________________________________________________________________
dense_102 (Dense)            (None, 1000)              3961000   
_________________________________________________________________
dropout_103 (Dropout)        (None, 1000)              0         
_________________________________________________________________
dense_103 (Dense)            (None, 200)               200200    
_________________________________________________________________
dropout_104 (Dropout)        (None, 200)               0         
_________________________________________________________________
dense_104 (Dense)            (None, 200)               40200     
_________________________________________________________________
dropout_105 (Dropout)        (None, 200)               0         
_________________________________________________________________
dense_105 (Dense)            (None, 100)               20100     
_________________________________________________________________
dropout_106 (Dropout)        (None, 100)               0         
_________________________________________________________________
dense_106 (Dense)            (None, 50)                5050      
_________________________________________________________________
dropout_107 (Dropout)        (None, 50)                0         
_________________________________________________________________
dense_107 (Dense)            (None, 6)                 306       
=================================================================
Total params: 4,227,976
Trainable params: 4,227,976
Non-trainable params: 0
_________________________________________________________________
data_dir: C:\Users\hbkm9\Documents\Projects\CYB\Experiment1\CYB003\Data
window_size: 1000
delay: 1000
gap_windows: None
stride: 20
freq_factor: 20
file_names: ['003_DownStair04.json', '003_DownStair06.json', '003_DownStair08.json', '003_DownStair10.json', '003_DownStair12.json', '003_DownStair14.json', '003_DownStair16.json', '003_DownStair18.json', '003_DownStair20.json', '003_DownStair22.json', '003_DownStair24.json', '003_DownStair26.json', '003_DownStair28.json']
…
