Model: "Depthwise_model"
_________________________________________________________________
Layer (type)                 Output Shape              Param #   
=================================================================
reshape_4 (Reshape)          (None, 1, 1000, 8)        0         
_________________________________________________________________
depthwise_conv2d_8 (Depthwis (None, 1, 1000, 40)       640       
_________________________________________________________________
max_pooling2d_8 (MaxPooling2 (None, 1, 166, 40)        0         
_________________________________________________________________
depthwise_conv2d_9 (Depthwis (None, 1, 166, 120)       480       
_________________________________________________________________
max_pooling2d_9 (MaxPooling2 (None, 1, 33, 120)        0         
_________________________________________________________________
dropout_24 (Dropout)         (None, 1, 33, 120)        0         
_________________________________________________________________
flatten_4 (Flatten)          (None, 3960)              0         
_________________________________________________________________
dense_24 (Dense)             (None, 1000)              3961000   
_________________________________________________________________
dropout_25 (Dropout)         (None, 1000)              0         
_________________________________________________________________
dense_25 (Dense)             (None, 200)               200200    
_________________________________________________________________
dropout_26 (Dropout)         (None, 200)               0         
_________________________________________________________________
dense_26 (Dense)             (None, 200)               40200     
_________________________________________________________________
dropout_27 (Dropout)         (None, 200)               0         
_________________________________________________________________
dense_27 (Dense)             (None, 100)               20100     
_________________________________________________________________
dropout_28 (Dropout)         (None, 100)               0         
_________________________________________________________________
dense_28 (Dense)             (None, 50)                5050      
_________________________________________________________________
dropout_29 (Dropout)         (None, 50)                0         
_________________________________________________________________
dense_29 (Dense)             (None, 6)                 306       
=================================================================
Total params: 4,227,976
Trainable params: 4,227,976
Non-trainable params: 0
_________________________________________________________________
data_dir: C:\Users\hbkm9\Documents\Projects\CYB\Experiment1\CYB004\Data
window_size: 1000
delay: 1000
gap_windows: None
stride: 20
freq_factor: 20
file_names: ['004_UpStair01.json', '0
…
