Model: "Depthwise_model_classifier"
_________________________________________________________________
Layer (type)                 Output Shape              Param #   
=================================================================
reshape_7 (Reshape)          (None, 1, 1000, 8)        0         
_________________________________________________________________
depthwise_conv2d_14 (Depthwi (None, 1, 1000, 40)       640       
_________________________________________________________________
max_pooling2d_14 (MaxPooling (None, 1, 166, 40)        0         
_________________________________________________________________
depthwise_conv2d_15 (Depthwi (None, 1, 166, 120)       480       
_________________________________________________________________
max_pooling2d_15 (MaxPooling (None, 1, 33, 120)        0         
_________________________________________________________________
dropout_42 (Dropout)         (None, 1, 33, 120)        0         
_________________________________________________________________
flatten_7 (Flatten)          (None, 3960)              0         
_________________________________________________________________
dense_42 (Dense)             (None, 1000)              3961000   
_________________________________________________________________
dropout_43 (Dropout)         (None, 1000)              0         
_________________________________________________________________
dense_43 (Dense)             (None, 100)               100100    
_________________________________________________________________
dropout_44 (Dropout)         (None, 100)               0         
_________________________________________________________________
dense_44 (Dense)             (None, 100)               10100     
_________________________________________________________________
dropout_45 (Dropout)         (None, 100)               0         
_________________________________________________________________
dense_45 (Dense)             (None, 50)                5050      
_________________________________________________________________
dropout_46 (Dropout)         (None, 50)                0         
_________________________________________________________________
dense_46 (Dense)             (None, 20)                1020      
_________________________________________________________________
dropout_47 (Dropout)         (None, 20)                0         
_________________________________________________________________
dense_47 (Dense)             (None, 3)                 63        
=================================================================
Total params: 4,078,453
Trainable params: 4,078,453
Non-trainable params: 0
_________________________________________________________________
data_dir: C:\Users\hbkm9\Documents\Projects\CYB\Experiment1\CYB005\Data_p
window_size: 1000
delay: 1000
gap_windows: None
stride: 20
freq_factor: 20
file_names: ['005_ParamWalk01.json
…
