Model: "Depthwise_model"
_________________________________________________________________
Layer (type)                 Output Shape              Param #   
=================================================================
reshape_9 (Reshape)          (None, 1, 1000, 8)        0         
_________________________________________________________________
depthwise_conv2d_18 (Depthwi (None, 1, 1000, 40)       640       
_________________________________________________________________
max_pooling2d_18 (MaxPooling (None, 1, 166, 40)        0         
_________________________________________________________________
depthwise_conv2d_19 (Depthwi (None, 1, 166, 120)       480       
_________________________________________________________________
max_pooling2d_19 (MaxPooling (None, 1, 33, 120)        0         
_________________________________________________________________
dropout_54 (Dropout)         (None, 1, 33, 120)        0         
_________________________________________________________________
flatten_9 (Flatten)          (None, 3960)              0         
_________________________________________________________________
dense_54 (Dense)             (None, 1000)              3961000   
_________________________________________________________________
dropout_55 (Dropout)         (None, 1000)              0         
_________________________________________________________________
dense_55 (Dense)             (None, 200)               200200    
_________________________________________________________________
dropout_56 (Dropout)         (None, 200)               0         
_________________________________________________________________
dense_56 (Dense)             (None, 200)               40200     
_________________________________________________________________
dropout_57 (Dropout)         (None, 200)               0         
_________________________________________________________________
dense_57 (Dense)             (None, 100)               20100     
_________________________________________________________________
dropout_58 (Dropout)         (None, 100)               0         
_________________________________________________________________
dense_58 (Dense)             (None, 50)                5050      
_________________________________________________________________
dropout_59 (Dropout)         (None, 50)                0         
_________________________________________________________________
dense_59 (Dense)             (None, 6)                 306       
=================================================================
Total params: 4,227,976
Trainable params: 4,227,976
Non-trainable params: 0
_________________________________________________________________
data_dir: C:\Users\hbkm9\Documents\Projects\CYB\Experiment1\CYB005\Data
window_size: 1000
delay: 1000
gap_windows: None
stride: 80
freq_factor: 20
file_names: ['005_DownSit01.json', '0
…
