Model: "Depthwise_model"
_________________________________________________________________
Layer (type)                 Output Shape              Param #   
=================================================================
reshape_19 (Reshape)         (None, 1, 400, 8)         0         
_________________________________________________________________
depthwise_conv2d_38 (Depthwi (None, 1, 400, 40)        640       
_________________________________________________________________
max_pooling2d_38 (MaxPooling (None, 1, 66, 40)         0         
_________________________________________________________________
depthwise_conv2d_39 (Depthwi (None, 1, 66, 120)        480       
_________________________________________________________________
max_pooling2d_39 (MaxPooling (None, 1, 13, 120)        0         
_________________________________________________________________
dropout_114 (Dropout)        (None, 1, 13, 120)        0         
_________________________________________________________________
flatten_19 (Flatten)         (None, 1560)              0         
_________________________________________________________________
dense_114 (Dense)            (None, 1000)              1561000   
_________________________________________________________________
dropout_115 (Dropout)        (None, 1000)              0         
_________________________________________________________________
dense_115 (Dense)            (None, 200)               200200    
_________________________________________________________________
dropout_116 (Dropout)        (None, 200)               0         
_________________________________________________________________
dense_116 (Dense)            (None, 200)               40200     
_________________________________________________________________
dropout_117 (Dropout)        (None, 200)               0         
_________________________________________________________________
dense_117 (Dense)            (None, 100)               20100     
_________________________________________________________________
dropout_118 (Dropout)        (None, 100)               0         
_________________________________________________________________
dense_118 (Dense)            (None, 50)                5050      
_________________________________________________________________
dropout_119 (Dropout)        (None, 50)                0         
_________________________________________________________________
dense_119 (Dense)            (None, 6)                 306       
=================================================================
Total params: 1,827,976
Trainable params: 1,827,976
Non-trainable params: 0
_________________________________________________________________
data_dir: C:\Users\hbkm9\Documents\Projects\CYB\Experiment2\CYB102\Data
window_size: 400
delay: 400
gap_windows: None
stride: 20
freq_factor: 20
file_names: ['102_Walk01.json', '102_Wa
…
