Model: "Depthwise_model"
_________________________________________________________________
Layer (type)                 Output Shape              Param #   
=================================================================
reshape_26 (Reshape)         (None, 1, 1000, 8)        0         
_________________________________________________________________
depthwise_conv2d_52 (Depthwi (None, 1, 1000, 40)       640       
_________________________________________________________________
max_pooling2d_52 (MaxPooling (None, 1, 166, 40)        0         
_________________________________________________________________
depthwise_conv2d_53 (Depthwi (None, 1, 166, 120)       480       
_________________________________________________________________
max_pooling2d_53 (MaxPooling (None, 1, 33, 120)        0         
_________________________________________________________________
dropout_156 (Dropout)        (None, 1, 33, 120)        0         
_________________________________________________________________
flatten_26 (Flatten)         (None, 3960)              0         
_________________________________________________________________
dense_156 (Dense)            (None, 1000)              3961000   
_________________________________________________________________
dropout_157 (Dropout)        (None, 1000)              0         
_________________________________________________________________
dense_157 (Dense)            (None, 200)               200200    
_________________________________________________________________
dropout_158 (Dropout)        (None, 200)               0         
_________________________________________________________________
dense_158 (Dense)            (None, 200)               40200     
_________________________________________________________________
dropout_159 (Dropout)        (None, 200)               0         
_________________________________________________________________
dense_159 (Dense)            (None, 100)               20100     
_________________________________________________________________
dropout_160 (Dropout)        (None, 100)               0         
_________________________________________________________________
dense_160 (Dense)            (None, 50)                5050      
_________________________________________________________________
dropout_161 (Dropout)        (None, 50)                0         
_________________________________________________________________
dense_161 (Dense)            (None, 6)                 306       
=================================================================
Total params: 4,227,976
Trainable params: 4,227,976
Non-trainable params: 0
_________________________________________________________________
data_dir: C:\Users\hbkm9\Documents\Projects\CYB\Experiment2\CYB101\Data
window_size: 1000
delay: 1000
gap_windows: None
stride: 20
freq_factor: 20
file_names: ['101_UpStair01.json', '1
…
