Model: "Depthwise_model"
_________________________________________________________________
Layer (type)                 Output Shape              Param #   
=================================================================
reshape_2 (Reshape)          (None, 1, 1000, 1)        0         
_________________________________________________________________
depthwise_conv2d_4 (Depthwis (None, 1, 1000, 5)        80        
_________________________________________________________________
max_pooling2d_4 (MaxPooling2 (None, 1, 166, 5)         0         
_________________________________________________________________
depthwise_conv2d_5 (Depthwis (None, 1, 166, 15)        60        
_________________________________________________________________
max_pooling2d_5 (MaxPooling2 (None, 1, 33, 15)         0         
_________________________________________________________________
dropout_12 (Dropout)         (None, 1, 33, 15)         0         
_________________________________________________________________
flatten_2 (Flatten)          (None, 495)               0         
_________________________________________________________________
dense_12 (Dense)             (None, 1000)              496000    
_________________________________________________________________
dropout_13 (Dropout)         (None, 1000)              0         
_________________________________________________________________
dense_13 (Dense)             (None, 200)               200200    
_________________________________________________________________
dropout_14 (Dropout)         (None, 200)               0         
_________________________________________________________________
dense_14 (Dense)             (None, 200)               40200     
_________________________________________________________________
dropout_15 (Dropout)         (None, 200)               0         
_________________________________________________________________
dense_15 (Dense)             (None, 100)               20100     
_________________________________________________________________
dropout_16 (Dropout)         (None, 100)               0         
_________________________________________________________________
dense_16 (Dense)             (None, 50)                5050      
_________________________________________________________________
dropout_17 (Dropout)         (None, 50)                0         
_________________________________________________________________
dense_17 (Dense)             (None, 6)                 306       
=================================================================
Total params: 761,996
Trainable params: 761,996
Non-trainable params: 0
_________________________________________________________________
data_dir: C:\Users\hbkm9\Documents\Projects\CYB\Experiment1\CYB004\Data
window_size: 1000
delay: 1000
gap_windows: None
stride: 20
freq_factor: 20
file_names: ['004_Walk01.json', '004_Walk
…
