Model: "Depthwise_model"
_________________________________________________________________
Layer (type)                 Output Shape              Param #   
=================================================================
reshape_11 (Reshape)         (None, 1, 1000, 8)        0         
_________________________________________________________________
depthwise_conv2d_22 (Depthwi (None, 1, 1000, 40)       640       
_________________________________________________________________
max_pooling2d_22 (MaxPooling (None, 1, 166, 40)        0         
_________________________________________________________________
depthwise_conv2d_23 (Depthwi (None, 1, 166, 120)       480       
_________________________________________________________________
max_pooling2d_23 (MaxPooling (None, 1, 33, 120)        0         
_________________________________________________________________
dropout_66 (Dropout)         (None, 1, 33, 120)        0         
_________________________________________________________________
flatten_11 (Flatten)         (None, 3960)              0         
_________________________________________________________________
dense_66 (Dense)             (None, 1000)              3961000   
_________________________________________________________________
dropout_67 (Dropout)         (None, 1000)              0         
_________________________________________________________________
dense_67 (Dense)             (None, 200)               200200    
_________________________________________________________________
dropout_68 (Dropout)         (None, 200)               0         
_________________________________________________________________
dense_68 (Dense)             (None, 200)               40200     
_________________________________________________________________
dropout_69 (Dropout)         (None, 200)               0         
_________________________________________________________________
dense_69 (Dense)             (None, 100)               20100     
_________________________________________________________________
dropout_70 (Dropout)         (None, 100)               0         
_________________________________________________________________
dense_70 (Dense)             (None, 50)                5050      
_________________________________________________________________
dropout_71 (Dropout)         (None, 50)                0         
_________________________________________________________________
dense_71 (Dense)             (None, 6)                 306       
=================================================================
Total params: 4,227,976
Trainable params: 4,227,976
Non-trainable params: 0
_________________________________________________________________
data_dir: C:\Users\hbkm9\Documents\Projects\CYB\Experiment1\CYB005\Data
window_size: 1000
delay: 1000
gap_windows: None
stride: 20
freq_factor: 20
file_names: ['005_DownSit01.json', '005_DownSit03.json', '005_DownSit05.json', '005_DownSit07.json', '005_DownSit09.json', '005_DownSit11.json']
…
