Model: "sequential"
_________________________________________________________________
Layer (type)                 Output Shape              Param #   
=================================================================
reshape (Reshape)            (None, 1, 200, 8)         0         
_________________________________________________________________
depthwise_conv2d (DepthwiseC (None, 1, 186, 32)        512       
_________________________________________________________________
max_pooling2d (MaxPooling2D) (None, 1, 46, 32)         0         
_________________________________________________________________
depthwise_conv2d_1 (Depthwis (None, 1, 40, 128)        512       
_________________________________________________________________
max_pooling2d_1 (MaxPooling2 (None, 1, 10, 128)        0         
_________________________________________________________________
dropout (Dropout)            (None, 1, 10, 128)        0         
_________________________________________________________________
flatten (Flatten)            (None, 1280)              0         
_________________________________________________________________
dense (Dense)                (None, 200)               256200    
_________________________________________________________________
dropout_1 (Dropout)          (None, 200)               0         
_________________________________________________________________
dense_1 (Dense)              (None, 200)               40200     
_________________________________________________________________
dropout_2 (Dropout)          (None, 200)               0         
_________________________________________________________________
dense_2 (Dense)              (None, 100)               20100     
_________________________________________________________________
dropout_3 (Dropout)          (None, 100)               0         
_________________________________________________________________
dense_3 (Dense)              (None, 50)                5050      
_________________________________________________________________
dropout_4 (Dropout)          (None, 50)                0         
_________________________________________________________________
dense_4 (Dense)              (None, 6)                 306       
=================================================================
Total params: 322,880
Trainable params: 322,880
Non-trainable params: 0
_________________________________________________________________
data_dir: C:\Users\hbkm9\Documents\Projects\CYB\Experiment1\CYB004\Data
window_size: 200
delay: 200
gap_windows: None
stride: 1
freq_factor: 20
file_names: ['004_Sit01.json', '004_Sit02.js
…
