Model: "sequential"
_________________________________________________________________
Layer (type)                 Output Shape              Param #   
=================================================================
reshape (Reshape)            (None, 1, 200, 8)         0         
_________________________________________________________________
depthwise_conv2d (DepthwiseC (None, 1, 196, 32)        192       
_________________________________________________________________
max_pooling2d (MaxPooling2D) (None, 1, 32, 32)         0         
_________________________________________________________________
depthwise_conv2d_1 (Depthwis (None, 1, 26, 128)        512       
_________________________________________________________________
max_pooling2d_1 (MaxPooling2 (None, 1, 4, 128)         0         
_________________________________________________________________
dropout (Dropout)            (None, 1, 4, 128)         0         
_________________________________________________________________
flatten (Flatten)            (None, 512)               0         
_________________________________________________________________
dense (Dense)                (None, 200)               102600    
_________________________________________________________________
batch_normalization (BatchNo (None, 200)               800       
_________________________________________________________________
activation (Activation)      (None, 200)               0         
_________________________________________________________________
dropout_1 (Dropout)          (None, 200)               0         
_________________________________________________________________
dense_1 (Dense)              (None, 200)               40200     
_________________________________________________________________
batch_normalization_1 (Batch (None, 200)               800       
_________________________________________________________________
activation_1 (Activation)    (None, 200)               0         
_________________________________________________________________
dropout_2 (Dropout)          (None, 200)               0         
_________________________________________________________________
dense_2 (Dense)              (None, 100)               20100     
_________________________________________________________________
batch_normalization_2 (Batch (None, 100)               400       
_________________________________________________________________
activation_2 (Activation)    (None, 100)               0         
_________________________________________________________________
dropout_3 (Dropout)          (None, 100)               0         
_________________________________________________________________
dense_3 (Dense)              (None, 50)                5050      
_________________________________________________________________
batch_normalization_3 (Batch (None, 50)                200       
_________________________________________________________________
activation_3 (Activation)    (None, 50)                0         
_________________________________________________________________
dropout_4 (Dropout)          (None, 50)                0         
_________________________________________________________________
dense_4 (Dense)              (None, 6)                 306       
=================================================================
Total params: 171,160
Trainable params: 170,060
Non-trainable params: 1,100
_________________________________________________________________
data_dir: C:\Users\hbkm9\Documents\Projects\CYB\Experiment1\CYB004\Data
window_size: 200
delay: 200
gap_windows: None
stride: 1
freq_factor: 20
file_names: ['004_Walk01.json', '004_Wal
…
