Model: "Depthwise_model"
_________________________________________________________________
Layer (type)                 Output Shape              Param #   
=================================================================
reshape_15 (Reshape)         (None, 1, 400, 7)         0         
_________________________________________________________________
depthwise_conv2d_30 (Depthwi (None, 1, 400, 35)        560       
_________________________________________________________________
max_pooling2d_30 (MaxPooling (None, 1, 66, 35)         0         
_________________________________________________________________
depthwise_conv2d_31 (Depthwi (None, 1, 66, 105)        420       
_________________________________________________________________
max_pooling2d_31 (MaxPooling (None, 1, 13, 105)        0         
_________________________________________________________________
dropout_90 (Dropout)         (None, 1, 13, 105)        0         
_________________________________________________________________
flatten_15 (Flatten)         (None, 1365)              0         
_________________________________________________________________
dense_90 (Dense)             (None, 1000)              1366000   
_________________________________________________________________
dropout_91 (Dropout)         (None, 1000)              0         
_________________________________________________________________
dense_91 (Dense)             (None, 200)               200200    
_________________________________________________________________
dropout_92 (Dropout)         (None, 200)               0         
_________________________________________________________________
dense_92 (Dense)             (None, 200)               40200     
_________________________________________________________________
dropout_93 (Dropout)         (None, 200)               0         
_________________________________________________________________
dense_93 (Dense)             (None, 100)               20100     
_________________________________________________________________
dropout_94 (Dropout)         (None, 100)               0         
_________________________________________________________________
dense_94 (Dense)             (None, 50)                5050      
_________________________________________________________________
dropout_95 (Dropout)         (None, 50)                0         
_________________________________________________________________
dense_95 (Dense)             (None, 6)                 306       
=================================================================
Total params: 1,632,836
Trainable params: 1,632,836
Non-trainable params: 0
_________________________________________________________________
data_dir: C:\Users\hbkm9\Documents\Projects\CYB\Experiment2\CYB101\Data
window_size: 400
delay: 400
gap_windows: None
stride: 20
freq_factor: 20
file_names: ['101_Walk01.json', '101_Wa
…
