Model: "Depthwise_model"
_________________________________________________________________
Layer (type)                 Output Shape              Param #   
=================================================================
reshape_16 (Reshape)         (None, 1, 400, 6)         0         
_________________________________________________________________
depthwise_conv2d_32 (Depthwi (None, 1, 400, 30)        480       
_________________________________________________________________
max_pooling2d_32 (MaxPooling (None, 1, 66, 30)         0         
_________________________________________________________________
depthwise_conv2d_33 (Depthwi (None, 1, 66, 90)         360       
_________________________________________________________________
max_pooling2d_33 (MaxPooling (None, 1, 13, 90)         0         
_________________________________________________________________
dropout_96 (Dropout)         (None, 1, 13, 90)         0         
_________________________________________________________________
flatten_16 (Flatten)         (None, 1170)              0         
_________________________________________________________________
dense_96 (Dense)             (None, 1000)              1171000   
_________________________________________________________________
dropout_97 (Dropout)         (None, 1000)              0         
_________________________________________________________________
dense_97 (Dense)             (None, 200)               200200    
_________________________________________________________________
dropout_98 (Dropout)         (None, 200)               0         
_________________________________________________________________
dense_98 (Dense)             (None, 200)               40200     
_________________________________________________________________
dropout_99 (Dropout)         (None, 200)               0         
_________________________________________________________________
dense_99 (Dense)             (None, 100)               20100     
_________________________________________________________________
dropout_100 (Dropout)        (None, 100)               0         
_________________________________________________________________
dense_100 (Dense)            (None, 50)                5050      
_________________________________________________________________
dropout_101 (Dropout)        (None, 50)                0         
_________________________________________________________________
dense_101 (Dense)            (None, 6)                 306       
=================================================================
Total params: 1,437,696
Trainable params: 1,437,696
Non-trainable params: 0
_________________________________________________________________
data_dir: C:\Users\hbkm9\Documents\Projects\CYB\Experiment2\CYB101\Data
window_size: 400
delay: 400
gap_windows: None
stride: 20
freq_factor: 20
file_names: ['101_Walk01.json', '101_Wa
…
