Model: "Depthwise_model"
_________________________________________________________________
Layer (type)                 Output Shape              Param #   
=================================================================
reshape_1 (Reshape)          (None, 1, 1000, 8)        0         
_________________________________________________________________
depthwise_conv2d_2 (Depthwis (None, 1, 1000, 40)       640       
_________________________________________________________________
max_pooling2d_2 (MaxPooling2 (None, 1, 166, 40)        0         
_________________________________________________________________
depthwise_conv2d_3 (Depthwis (None, 1, 166, 120)       480       
_________________________________________________________________
max_pooling2d_3 (MaxPooling2 (None, 1, 33, 120)        0         
_________________________________________________________________
dropout_6 (Dropout)          (None, 1, 33, 120)        0         
_________________________________________________________________
flatten_1 (Flatten)          (None, 3960)              0         
_________________________________________________________________
dense_6 (Dense)              (None, 1000)              3961000   
_________________________________________________________________
dropout_7 (Dropout)          (None, 1000)              0         
_________________________________________________________________
dense_7 (Dense)              (None, 200)               200200    
_________________________________________________________________
dropout_8 (Dropout)          (None, 200)               0         
_________________________________________________________________
dense_8 (Dense)              (None, 200)               40200     
_________________________________________________________________
dropout_9 (Dropout)          (None, 200)               0         
_________________________________________________________________
dense_9 (Dense)              (None, 100)               20100     
_________________________________________________________________
dropout_10 (Dropout)         (None, 100)               0         
_________________________________________________________________
dense_10 (Dense)             (None, 50)                5050      
_________________________________________________________________
dropout_11 (Dropout)         (None, 50)                0         
_________________________________________________________________
dense_11 (Dense)             (None, 6)                 306       
=================================================================
Total params: 4,227,976
Trainable params: 4,227,976
Non-trainable params: 0
_________________________________________________________________
data_dir: C:\Users\hbkm9\Documents\Projects\CYB\Experiment1\CYB003\Data
window_size: 1000
delay: 1000
gap_windows: None
stride: 20
freq_factor: 20
file_names: ['003_Walk01.json', '003_
…
