Model: "Depthwise_model"
_________________________________________________________________
Layer (type)                 Output Shape              Param #   
=================================================================
reshape_29 (Reshape)         (None, 1, 1000, 8)        0         
_________________________________________________________________
depthwise_conv2d_58 (Depthwi (None, 1, 1000, 40)       640       
_________________________________________________________________
max_pooling2d_58 (MaxPooling (None, 1, 166, 40)        0         
_________________________________________________________________
depthwise_conv2d_59 (Depthwi (None, 1, 166, 120)       480       
_________________________________________________________________
max_pooling2d_59 (MaxPooling (None, 1, 33, 120)        0         
_________________________________________________________________
dropout_174 (Dropout)        (None, 1, 33, 120)        0         
_________________________________________________________________
flatten_29 (Flatten)         (None, 3960)              0         
_________________________________________________________________
dense_174 (Dense)            (None, 1000)              3961000   
_________________________________________________________________
dropout_175 (Dropout)        (None, 1000)              0         
_________________________________________________________________
dense_175 (Dense)            (None, 200)               200200    
_________________________________________________________________
dropout_176 (Dropout)        (None, 200)               0         
_________________________________________________________________
dense_176 (Dense)            (None, 200)               40200     
_________________________________________________________________
dropout_177 (Dropout)        (None, 200)               0         
_________________________________________________________________
dense_177 (Dense)            (None, 100)               20100     
_________________________________________________________________
dropout_178 (Dropout)        (None, 100)               0         
_________________________________________________________________
dense_178 (Dense)            (None, 50)                5050      
_________________________________________________________________
dropout_179 (Dropout)        (None, 50)                0         
_________________________________________________________________
dense_179 (Dense)            (None, 6)                 306       
=================================================================
Total params: 4,227,976
Trainable params: 4,227,976
Non-trainable params: 0
_________________________________________________________________
data_dir: C:\Users\hbkm9\Documents\Projects\CYB\Experiment2\CYB102\Data
window_size: 1000
delay: 1000
gap_windows: None
stride: 20
freq_factor: 20
file_names: ['102_Walk01.json', '102_
…
