Model: "Depthwise_model_classifier"
_________________________________________________________________
Layer (type)                 Output Shape              Param #   
=================================================================
reshape_5 (Reshape)          (None, 1, 1000, 8)        0         
_________________________________________________________________
depthwise_conv2d_10 (Depthwi (None, 1, 1000, 40)       640       
_________________________________________________________________
max_pooling2d_10 (MaxPooling (None, 1, 166, 40)        0         
_________________________________________________________________
depthwise_conv2d_11 (Depthwi (None, 1, 166, 120)       480       
_________________________________________________________________
max_pooling2d_11 (MaxPooling (None, 1, 33, 120)        0         
_________________________________________________________________
dropout_30 (Dropout)         (None, 1, 33, 120)        0         
_________________________________________________________________
flatten_5 (Flatten)          (None, 3960)              0         
_________________________________________________________________
dense_30 (Dense)             (None, 1000)              3961000   
_________________________________________________________________
dropout_31 (Dropout)         (None, 1000)              0         
_________________________________________________________________
dense_31 (Dense)             (None, 100)               100100    
_________________________________________________________________
dropout_32 (Dropout)         (None, 100)               0         
_________________________________________________________________
dense_32 (Dense)             (None, 100)               10100     
_________________________________________________________________
dropout_33 (Dropout)         (None, 100)               0         
_________________________________________________________________
dense_33 (Dense)             (None, 50)                5050      
_________________________________________________________________
dropout_34 (Dropout)         (None, 50)                0         
_________________________________________________________________
dense_34 (Dense)             (None, 20)                1020      
_________________________________________________________________
dropout_35 (Dropout)         (None, 20)                0         
_________________________________________________________________
dense_35 (Dense)             (None, 3)                 63        
=================================================================
Total params: 4,078,453
Trainable params: 4,077,333
Non-trainable params: 1,120
_________________________________________________________________
data_dir: C:\Users\hbkm9\Documents\Projects\CYB\Experiment1\CYB004\Data_p
window_size: 1000
delay: 1000
gap_windows: None
stride: 20
freq_factor: 20
file_names: ['004_ParamWalk01.
…
