Model: "Depthwise_model_classifier"
_________________________________________________________________
Layer (type)                 Output Shape              Param #   
=================================================================
reshape (Reshape)            (None, 1, 400, 8)         0         
_________________________________________________________________
depthwise_conv2d (DepthwiseC (None, 1, 400, 40)        640       
_________________________________________________________________
max_pooling2d (MaxPooling2D) (None, 1, 66, 40)         0         
_________________________________________________________________
depthwise_conv2d_1 (Depthwis (None, 1, 66, 120)        480       
_________________________________________________________________
max_pooling2d_1 (MaxPooling2 (None, 1, 13, 120)        0         
_________________________________________________________________
dropout (Dropout)            (None, 1, 13, 120)        0         
_________________________________________________________________
flatten (Flatten)            (None, 1560)              0         
_________________________________________________________________
dense (Dense)                (None, 500)               780500    
_________________________________________________________________
batch_normalization (BatchNo (None, 500)               2000      
_________________________________________________________________
activation (Activation)      (None, 500)               0         
_________________________________________________________________
dropout_1 (Dropout)          (None, 500)               0         
_________________________________________________________________
dense_1 (Dense)              (None, 200)               100200    
_________________________________________________________________
batch_normalization_1 (Batch (None, 200)               800       
_________________________________________________________________
activation_1 (Activation)    (None, 200)               0         
_________________________________________________________________
dropout_2 (Dropout)          (None, 200)               0         
_________________________________________________________________
dense_2 (Dense)              (None, 200)               40200     
_________________________________________________________________
batch_normalization_2 (Batch (None, 200)               800       
_________________________________________________________________
activation_2 (Activation)    (None, 200)               0         
_________________________________________________________________
dropout_3 (Dropout)          (None, 200)               0         
_________________________________________________________________
dense_3 (Dense)              (None, 100)               20100     
_________________________________________________________________
batch_normalization_3 (Batch (None, 100)               400       
_________________________________________________________________
activation_3 (Activation)    (None, 100)               0         
_________________________________________________________________
dropout_4 (Dropout)          (None, 100)               0         
_________________________________________________________________
dense_4 (Dense)              (None, 50)                5050      
_________________________________________________________________
batch_normalization_4 (Batch (None, 50)                200       
_________________________________________________________________
activation_4 (Activation)    (None, 50)                0         
_________________________________________________________________
dropout_5 (Dropout)          (None, 50)                0         
_________________________________________________________________
dense_5 (Dense)              (None, 3)                 153       
=================================================================
Total params: 951,523
Trainable params: 949,423
Non-trainable params: 2,100
_________________________________________________________________
data_dir: C:\Users\hbkm9\Documents\Projects\CYB\Experiment1\CYB004\Data_p
window_size: 400
delay: 400
gap_windows: None
stride: 20
freq_factor: 20
file_names: ['004_ParamDownStair02.js
…
