Model: "Depthwise_model"
_________________________________________________________________
Layer (type)                 Output Shape              Param #   
=================================================================
reshape_39 (Reshape)         (None, 1, 1000, 8)        0         
_________________________________________________________________
depthwise_conv2d_78 (Depthwi (None, 1, 1000, 40)       640       
_________________________________________________________________
max_pooling2d_78 (MaxPooling (None, 1, 166, 40)        0         
_________________________________________________________________
depthwise_conv2d_79 (Depthwi (None, 1, 166, 120)       480       
_________________________________________________________________
max_pooling2d_79 (MaxPooling (None, 1, 33, 120)        0         
_________________________________________________________________
dropout_234 (Dropout)        (None, 1, 33, 120)        0         
_________________________________________________________________
flatten_39 (Flatten)         (None, 3960)              0         
_________________________________________________________________
dense_234 (Dense)            (None, 1000)              3961000   
_________________________________________________________________
dropout_235 (Dropout)        (None, 1000)              0         
_________________________________________________________________
dense_235 (Dense)            (None, 200)               200200    
_________________________________________________________________
dropout_236 (Dropout)        (None, 200)               0         
_________________________________________________________________
dense_236 (Dense)            (None, 200)               40200     
_________________________________________________________________
dropout_237 (Dropout)        (None, 200)               0         
_________________________________________________________________
dense_237 (Dense)            (None, 100)               20100     
_________________________________________________________________
dropout_238 (Dropout)        (None, 100)               0         
_________________________________________________________________
dense_238 (Dense)            (None, 50)                5050      
_________________________________________________________________
dropout_239 (Dropout)        (None, 50)                0         
_________________________________________________________________
dense_239 (Dense)            (None, 6)                 306       
=================================================================
Total params: 4,227,976
Trainable params: 4,227,976
Non-trainable params: 0
_________________________________________________________________
data_dir: C:\Users\hbkm9\Documents\Projects\CYB\Experiment2\CYB102\Data
window_size: 1000
delay: 1000
gap_windows: None
stride: 20
freq_factor: 20
file_names: ['102_UpStair02.json', '1
…
