Model: "Depthwise_model"
_________________________________________________________________
Layer (type)                 Output Shape              Param #   
=================================================================
reshape_3 (Reshape)          (None, 1, 1000, 8)        0         
_________________________________________________________________
depthwise_conv2d_6 (Depthwis (None, 1, 1000, 40)       640       
_________________________________________________________________
max_pooling2d_6 (MaxPooling2 (None, 1, 166, 40)        0         
_________________________________________________________________
depthwise_conv2d_7 (Depthwis (None, 1, 166, 120)       480       
_________________________________________________________________
max_pooling2d_7 (MaxPooling2 (None, 1, 33, 120)        0         
_________________________________________________________________
dropout_18 (Dropout)         (None, 1, 33, 120)        0         
_________________________________________________________________
flatten_3 (Flatten)          (None, 3960)              0         
_________________________________________________________________
dense_18 (Dense)             (None, 1000)              3961000   
_________________________________________________________________
dropout_19 (Dropout)         (None, 1000)              0         
_________________________________________________________________
dense_19 (Dense)             (None, 200)               200200    
_________________________________________________________________
dropout_20 (Dropout)         (None, 200)               0         
_________________________________________________________________
dense_20 (Dense)             (None, 200)               40200     
_________________________________________________________________
dropout_21 (Dropout)         (None, 200)               0         
_________________________________________________________________
dense_21 (Dense)             (None, 100)               20100     
_________________________________________________________________
dropout_22 (Dropout)         (None, 100)               0         
_________________________________________________________________
dense_22 (Dense)             (None, 50)                5050      
_________________________________________________________________
dropout_23 (Dropout)         (None, 50)                0         
_________________________________________________________________
dense_23 (Dense)             (None, 6)                 306       
=================================================================
Total params: 4,227,976
Trainable params: 4,227,976
Non-trainable params: 0
_________________________________________________________________
data_dir: C:\Users\hbkm9\Documents\Projects\CYB\Experiment1\CYB004\Data
window_size: 1000
delay: 1000
gap_windows: None
stride: 5
freq_factor: 20
file_names: ['004_UpStair01.json', '00
…
