Model: "Depthwise_model"
_________________________________________________________________
Layer (type)                 Output Shape              Param #   
=================================================================
reshape_23 (Reshape)         (None, 1, 400, 7)         0         
_________________________________________________________________
depthwise_conv2d_46 (Depthwi (None, 1, 400, 35)        560       
_________________________________________________________________
max_pooling2d_46 (MaxPooling (None, 1, 66, 35)         0         
_________________________________________________________________
depthwise_conv2d_47 (Depthwi (None, 1, 66, 105)        420       
_________________________________________________________________
max_pooling2d_47 (MaxPooling (None, 1, 13, 105)        0         
_________________________________________________________________
dropout_138 (Dropout)        (None, 1, 13, 105)        0         
_________________________________________________________________
flatten_23 (Flatten)         (None, 1365)              0         
_________________________________________________________________
dense_138 (Dense)            (None, 1000)              1366000   
_________________________________________________________________
dropout_139 (Dropout)        (None, 1000)              0         
_________________________________________________________________
dense_139 (Dense)            (None, 200)               200200    
_________________________________________________________________
dropout_140 (Dropout)        (None, 200)               0         
_________________________________________________________________
dense_140 (Dense)            (None, 200)               40200     
_________________________________________________________________
dropout_141 (Dropout)        (None, 200)               0         
_________________________________________________________________
dense_141 (Dense)            (None, 100)               20100     
_________________________________________________________________
dropout_142 (Dropout)        (None, 100)               0         
_________________________________________________________________
dense_142 (Dense)            (None, 50)                5050      
_________________________________________________________________
dropout_143 (Dropout)        (None, 50)                0         
_________________________________________________________________
dense_143 (Dense)            (None, 6)                 306       
=================================================================
Total params: 1,632,836
Trainable params: 1,632,836
Non-trainable params: 0
_________________________________________________________________
data_dir: C:\Users\hbkm9\Documents\Projects\CYB\Experiment2\CYB102\Data
window_size: 400
delay: 400
gap_windows: None
stride: 20
freq_factor: 20
file_names: ['102_Walk01.json', '102_Wa
…
