Model: "Depthwise_model"
_________________________________________________________________
Layer (type)                 Output Shape              Param #   
=================================================================
reshape_8 (Reshape)          (None, 1, 1000, 8)        0         
_________________________________________________________________
depthwise_conv2d_16 (Depthwi (None, 1, 1000, 40)       640       
_________________________________________________________________
max_pooling2d_16 (MaxPooling (None, 1, 166, 40)        0         
_________________________________________________________________
depthwise_conv2d_17 (Depthwi (None, 1, 166, 120)       480       
_________________________________________________________________
max_pooling2d_17 (MaxPooling (None, 1, 33, 120)        0         
_________________________________________________________________
dropout_48 (Dropout)         (None, 1, 33, 120)        0         
_________________________________________________________________
flatten_8 (Flatten)          (None, 3960)              0         
_________________________________________________________________
dense_48 (Dense)             (None, 1000)              3961000   
_________________________________________________________________
dropout_49 (Dropout)         (None, 1000)              0         
_________________________________________________________________
dense_49 (Dense)             (None, 200)               200200    
_________________________________________________________________
dropout_50 (Dropout)         (None, 200)               0         
_________________________________________________________________
dense_50 (Dense)             (None, 200)               40200     
_________________________________________________________________
dropout_51 (Dropout)         (None, 200)               0         
_________________________________________________________________
dense_51 (Dense)             (None, 100)               20100     
_________________________________________________________________
dropout_52 (Dropout)         (None, 100)               0         
_________________________________________________________________
dense_52 (Dense)             (None, 50)                5050      
_________________________________________________________________
dropout_53 (Dropout)         (None, 50)                0         
_________________________________________________________________
dense_53 (Dense)             (None, 6)                 306       
=================================================================
Total params: 4,227,976
Trainable params: 4,227,976
Non-trainable params: 0
_________________________________________________________________
data_dir: C:\Users\hbkm9\Documents\Projects\CYB\Experiment2\CYB102\Data
window_size: 1000
delay: 1000
gap_windows: None
stride: 5
freq_factor: 20
file_names: ['102_DownSit01.json', '10
…
