Model: "Depthwise_model_classifier"
_________________________________________________________________
Layer (type)                 Output Shape              Param #   
=================================================================
reshape_10 (Reshape)         (None, 1, 1000, 8)        0         
_________________________________________________________________
depthwise_conv2d_20 (Depthwi (None, 1, 1000, 40)       640       
_________________________________________________________________
max_pooling2d_20 (MaxPooling (None, 1, 166, 40)        0         
_________________________________________________________________
depthwise_conv2d_21 (Depthwi (None, 1, 166, 120)       480       
_________________________________________________________________
max_pooling2d_21 (MaxPooling (None, 1, 33, 120)        0         
_________________________________________________________________
dropout_40 (Dropout)         (None, 1, 33, 120)        0         
_________________________________________________________________
flatten_10 (Flatten)         (None, 3960)              0         
_________________________________________________________________
dense_40 (Dense)             (None, 50)                198050    
_________________________________________________________________
dropout_41 (Dropout)         (None, 50)                0         
_________________________________________________________________
dense_41 (Dense)             (None, 30)                1530      
_________________________________________________________________
dropout_42 (Dropout)         (None, 30)                0         
_________________________________________________________________
dense_42 (Dense)             (None, 20)                620       
_________________________________________________________________
dropout_43 (Dropout)         (None, 20)                0         
_________________________________________________________________
dense_43 (Dense)             (None, 5)                 105       
=================================================================
Total params: 201,425
Trainable params: 201,425
Non-trainable params: 0
_________________________________________________________________
data_dir: C:\Users\hbkm9\Documents\Projects\CYB\Experiment1\CYB005\Data
window_size: 1000
delay: 1000
gap_windows: None
stride: 20
freq_factor: 20
file_names: ['005_DownSit01.json', '005_D
…
