Model: "Depthwise_model"
_________________________________________________________________
Layer (type)                 Output Shape              Param #   
=================================================================
reshape_21 (Reshape)         (None, 1, 1000, 8)        0         
_________________________________________________________________
depthwise_conv2d_42 (Depthwi (None, 1, 1000, 40)       640       
_________________________________________________________________
max_pooling2d_42 (MaxPooling (None, 1, 166, 40)        0         
_________________________________________________________________
depthwise_conv2d_43 (Depthwi (None, 1, 166, 120)       480       
_________________________________________________________________
max_pooling2d_43 (MaxPooling (None, 1, 33, 120)        0         
_________________________________________________________________
dropout_126 (Dropout)        (None, 1, 33, 120)        0         
_________________________________________________________________
flatten_21 (Flatten)         (None, 3960)              0         
_________________________________________________________________
dense_126 (Dense)            (None, 1000)              3961000   
_________________________________________________________________
dropout_127 (Dropout)        (None, 1000)              0         
_________________________________________________________________
dense_127 (Dense)            (None, 200)               200200    
_________________________________________________________________
dropout_128 (Dropout)        (None, 200)               0         
_________________________________________________________________
dense_128 (Dense)            (None, 200)               40200     
_________________________________________________________________
dropout_129 (Dropout)        (None, 200)               0         
_________________________________________________________________
dense_129 (Dense)            (None, 100)               20100     
_________________________________________________________________
dropout_130 (Dropout)        (None, 100)               0         
_________________________________________________________________
dense_130 (Dense)            (None, 50)                5050      
_________________________________________________________________
dropout_131 (Dropout)        (None, 50)                0         
_________________________________________________________________
dense_131 (Dense)            (None, 6)                 306       
=================================================================
Total params: 4,227,976
Trainable params: 4,227,976
Non-trainable params: 0
_________________________________________________________________
data_dir: C:\Users\hbkm9\Documents\Projects\CYB\Experiment2\CYB101\Data
window_size: 1000
delay: 1000
gap_windows: None
stride: 20
freq_factor: 20
file_names: ['101_Walk01.json', '101_
…
