Model: "Conv2D_Model"
_________________________________________________________________
Layer (type)                 Output Shape              Param #   
=================================================================
conv2d (Conv2D)              (None, 61, 40, 4)         3204      
_________________________________________________________________
max_pooling2d (MaxPooling2D) (None, 30, 20, 4)         0         
_________________________________________________________________
conv2d_1 (Conv2D)            (None, 30, 20, 12)        444       
_________________________________________________________________
max_pooling2d_1 (MaxPooling2 (None, 15, 20, 12)        0         
_________________________________________________________________
dropout (Dropout)            (None, 15, 20, 12)        0         
_________________________________________________________________
flatten (Flatten)            (None, 3600)              0         
_________________________________________________________________
dense (Dense)                (None, 500)               1800500   
_________________________________________________________________
batch_normalization (BatchNo (None, 500)               2000      
_________________________________________________________________
activation (Activation)      (None, 500)               0         
_________________________________________________________________
dropout_1 (Dropout)          (None, 500)               0         
_________________________________________________________________
dense_1 (Dense)              (None, 200)               100200    
_________________________________________________________________
batch_normalization_1 (Batch (None, 200)               800       
_________________________________________________________________
activation_1 (Activation)    (None, 200)               0         
_________________________________________________________________
dropout_2 (Dropout)          (None, 200)               0         
_________________________________________________________________
dense_2 (Dense)              (None, 100)               20100     
_________________________________________________________________
batch_normalization_2 (Batch (None, 100)               400       
_________________________________________________________________
activation_2 (Activation)    (None, 100)               0         
_________________________________________________________________
dropout_3 (Dropout)          (None, 100)               0         
_________________________________________________________________
dense_3 (Dense)              (None, 100)               10100     
_________________________________________________________________
batch_normalization_3 (Batch (None, 100)               400       
_________________________________________________________________
activation_3 (Activation)    (None, 100)               0         
_________________________________________________________________
dropout_4 (Dropout)          (None, 100)               0         
_________________________________________________________________
dense_4 (Dense)              (None, 6)                 606       
=================================================================
Total params: 1,938,754
Trainable params: 1,936,954
Non-trainable params: 1,800
_________________________________________________________________
data_dir: C:\Users\hbkm9\Documents\Projects\CYB\Experiment1\CYB004\Data
window_size: 400
delay: 400
gap_windows: None
stride: 1
freq_factor: 20
file_names: ['004_Walk01.json', '004
…
