Model: "Depthwise_model"
_________________________________________________________________
Layer (type)                 Output Shape              Param #   
=================================================================
reshape_34 (Reshape)         (None, 1, 1000, 8)        0         
_________________________________________________________________
depthwise_conv2d_68 (Depthwi (None, 1, 1000, 40)       640       
_________________________________________________________________
max_pooling2d_68 (MaxPooling (None, 1, 166, 40)        0         
_________________________________________________________________
depthwise_conv2d_69 (Depthwi (None, 1, 166, 120)       480       
_________________________________________________________________
max_pooling2d_69 (MaxPooling (None, 1, 33, 120)        0         
_________________________________________________________________
dropout_204 (Dropout)        (None, 1, 33, 120)        0         
_________________________________________________________________
flatten_34 (Flatten)         (None, 3960)              0         
_________________________________________________________________
dense_204 (Dense)            (None, 1000)              3961000   
_________________________________________________________________
dropout_205 (Dropout)        (None, 1000)              0         
_________________________________________________________________
dense_205 (Dense)            (None, 200)               200200    
_________________________________________________________________
dropout_206 (Dropout)        (None, 200)               0         
_________________________________________________________________
dense_206 (Dense)            (None, 200)               40200     
_________________________________________________________________
dropout_207 (Dropout)        (None, 200)               0         
_________________________________________________________________
dense_207 (Dense)            (None, 100)               20100     
_________________________________________________________________
dropout_208 (Dropout)        (None, 100)               0         
_________________________________________________________________
dense_208 (Dense)            (None, 50)                5050      
_________________________________________________________________
dropout_209 (Dropout)        (None, 50)                0         
_________________________________________________________________
dense_209 (Dense)            (None, 6)                 306       
=================================================================
Total params: 4,227,976
Trainable params: 4,227,976
Non-trainable params: 0
_________________________________________________________________
data_dir: C:\Users\hbkm9\Documents\Projects\CYB\Experiment2\CYB101\Data
window_size: 1000
delay: 1000
gap_windows: None
stride: 20
freq_factor: 20
file_names: ['101_DownStair02.json', 
…
