Model: "Depthwise_model"
_________________________________________________________________
Layer (type)                 Output Shape              Param #   
=================================================================
reshape_15 (Reshape)         (None, 1, 1000, 8)        0         
_________________________________________________________________
depthwise_conv2d_30 (Depthwi (None, 1, 1000, 40)       640       
_________________________________________________________________
max_pooling2d_30 (MaxPooling (None, 1, 166, 40)        0         
_________________________________________________________________
depthwise_conv2d_31 (Depthwi (None, 1, 166, 120)       480       
_________________________________________________________________
max_pooling2d_31 (MaxPooling (None, 1, 33, 120)        0         
_________________________________________________________________
dropout_90 (Dropout)         (None, 1, 33, 120)        0         
_________________________________________________________________
flatten_15 (Flatten)         (None, 3960)              0         
_________________________________________________________________
dense_90 (Dense)             (None, 1000)              3961000   
_________________________________________________________________
dropout_91 (Dropout)         (None, 1000)              0         
_________________________________________________________________
dense_91 (Dense)             (None, 200)               200200    
_________________________________________________________________
dropout_92 (Dropout)         (None, 200)               0         
_________________________________________________________________
dense_92 (Dense)             (None, 200)               40200     
_________________________________________________________________
dropout_93 (Dropout)         (None, 200)               0         
_________________________________________________________________
dense_93 (Dense)             (None, 100)               20100     
_________________________________________________________________
dropout_94 (Dropout)         (None, 100)               0         
_________________________________________________________________
dense_94 (Dense)             (None, 50)                5050      
_________________________________________________________________
dropout_95 (Dropout)         (None, 50)                0         
_________________________________________________________________
dense_95 (Dense)             (None, 6)                 306       
=================================================================
Total params: 4,227,976
Trainable params: 4,227,976
Non-trainable params: 0
_________________________________________________________________
data_dir: C:\Users\hbkm9\Documents\Projects\CYB\Experiment1\CYB005\Data
window_size: 1000
delay: 1000
gap_windows: None
stride: 20
freq_factor: 20
file_names: ['005_UpStair11.json', '005_UpStair13.json', '005_UpStair15.json', '005_UpStair17.json', '005_UpStair19.json', '005_UpStair21.json', '005_UpStair23.json', '005_UpStair25.json', '005_UpStair27.json', '005_UpStair29.json']
…
