Model: "sequential"
_________________________________________________________________
Layer (type)                 Output Shape              Param #   
=================================================================
reshape (Reshape)            (None, 1, 200, 8)         0         
_________________________________________________________________
depthwise_conv2d (DepthwiseC (None, 1, 171, 48)        1488      
_________________________________________________________________
max_pooling2d (MaxPooling2D) (None, 1, 42, 48)         0         
_________________________________________________________________
depthwise_conv2d_1 (Depthwis (None, 1, 36, 192)        768       
_________________________________________________________________
max_pooling2d_1 (MaxPooling2 (None, 1, 9, 192)         0         
_________________________________________________________________
dropout (Dropout)            (None, 1, 9, 192)         0         
_________________________________________________________________
flatten (Flatten)            (None, 1728)              0         
_________________________________________________________________
dense (Dense)                (None, 100)               172900    
_________________________________________________________________
batch_normalization (BatchNo (None, 100)               400       
_________________________________________________________________
activation (Activation)      (None, 100)               0         
_________________________________________________________________
dropout_1 (Dropout)          (None, 100)               0         
_________________________________________________________________
dense_1 (Dense)              (None, 50)                5050      
_________________________________________________________________
batch_normalization_1 (Batch (None, 50)                200       
_________________________________________________________________
activation_1 (Activation)    (None, 50)                0         
_________________________________________________________________
dropout_2 (Dropout)          (None, 50)                0         
_________________________________________________________________
dense_2 (Dense)              (None, 6)                 306       
=================================================================
Total params: 181,112
Trainable params: 180,812
Non-trainable params: 300
_________________________________________________________________
data_dir: C:\Users\hbkm9\Documents\Projects\CYB\Experiment_Balint\CYB004\Data
window_size: 200
delay: 200
gap_windows: None
stride: 1
freq_factor: 20
file_names: ['004_Walk01.json', '004
…
