Model: "Depthwise_model"
_________________________________________________________________
Layer (type)                 Output Shape              Param #   
=================================================================
reshape_32 (Reshape)         (None, 1, 1000, 8)        0         
_________________________________________________________________
depthwise_conv2d_64 (Depthwi (None, 1, 1000, 40)       640       
_________________________________________________________________
max_pooling2d_64 (MaxPooling (None, 1, 166, 40)        0         
_________________________________________________________________
depthwise_conv2d_65 (Depthwi (None, 1, 166, 120)       480       
_________________________________________________________________
max_pooling2d_65 (MaxPooling (None, 1, 33, 120)        0         
_________________________________________________________________
dropout_192 (Dropout)        (None, 1, 33, 120)        0         
_________________________________________________________________
flatten_32 (Flatten)         (None, 3960)              0         
_________________________________________________________________
dense_192 (Dense)            (None, 1000)              3961000   
_________________________________________________________________
dropout_193 (Dropout)        (None, 1000)              0         
_________________________________________________________________
dense_193 (Dense)            (None, 200)               200200    
_________________________________________________________________
dropout_194 (Dropout)        (None, 200)               0         
_________________________________________________________________
dense_194 (Dense)            (None, 200)               40200     
_________________________________________________________________
dropout_195 (Dropout)        (None, 200)               0         
_________________________________________________________________
dense_195 (Dense)            (None, 100)               20100     
_________________________________________________________________
dropout_196 (Dropout)        (None, 100)               0         
_________________________________________________________________
dense_196 (Dense)            (None, 50)                5050      
_________________________________________________________________
dropout_197 (Dropout)        (None, 50)                0         
_________________________________________________________________
dense_197 (Dense)            (None, 6)                 306       
=================================================================
Total params: 4,227,976
Trainable params: 4,227,976
Non-trainable params: 0
_________________________________________________________________
data_dir: C:\Users\hbkm9\Documents\Projects\CYB\Experiment1\CYB005\Data
window_size: 1000
delay: 1000
gap_windows: None
stride: 20
freq_factor: 20
file_names: ['005_DownStair12.json', '005_DownStair14.json', '005_DownStair16.json', '005_DownStair18.json', '005_DownStair20.json', '005_DownStair22.json', '005_DownStair24.json', '005_DownStair26.json', '005_DownStair28.json', '005_DownStair30.json']
…
