Model: "Depthwise_model_classifier"
_________________________________________________________________
Layer (type)                 Output Shape              Param #   
=================================================================
reshape_1 (Reshape)          (None, 1, 500, 8)         0         
_________________________________________________________________
depthwise_conv2d_2 (Depthwis (None, 1, 500, 40)        640       
_________________________________________________________________
max_pooling2d_2 (MaxPooling2 (None, 1, 83, 40)         0         
_________________________________________________________________
depthwise_conv2d_3 (Depthwis (None, 1, 83, 120)        480       
_________________________________________________________________
max_pooling2d_3 (MaxPooling2 (None, 1, 16, 120)        0         
_________________________________________________________________
dropout_4 (Dropout)          (None, 1, 16, 120)        0         
_________________________________________________________________
flatten_1 (Flatten)          (None, 1920)              0         
_________________________________________________________________
dense_4 (Dense)              (None, 50)                96050     
_________________________________________________________________
dropout_5 (Dropout)          (None, 50)                0         
_________________________________________________________________
dense_5 (Dense)              (None, 30)                1530      
_________________________________________________________________
dropout_6 (Dropout)          (None, 30)                0         
_________________________________________________________________
dense_6 (Dense)              (None, 20)                620       
_________________________________________________________________
dropout_7 (Dropout)          (None, 20)                0         
_________________________________________________________________
dense_7 (Dense)              (None, 5)                 105       
=================================================================
Total params: 99,425
Trainable params: 99,425
Non-trainable params: 0
_________________________________________________________________
data_dir: C:\Users\hbkm9\Documents\Projects\CYB\Experiment2\CYB102\Data
window_size: 500
delay: 500
gap_windows: None
stride: 40
freq_factor: 20
file_names: ['102_DownSit01.json', '102_DownS
…
