Model: "Depthwise_model"
_________________________________________________________________
Layer (type)                 Output Shape              Param #   
=================================================================
reshape_2 (Reshape)          (None, 1, 1000, 8)        0         
_________________________________________________________________
depthwise_conv2d_4 (Depthwis (None, 1, 1000, 40)       640       
_________________________________________________________________
max_pooling2d_4 (MaxPooling2 (None, 1, 166, 40)        0         
_________________________________________________________________
depthwise_conv2d_5 (Depthwis (None, 1, 166, 120)       480       
_________________________________________________________________
max_pooling2d_5 (MaxPooling2 (None, 1, 33, 120)        0         
_________________________________________________________________
dropout_8 (Dropout)          (None, 1, 33, 120)        0         
_________________________________________________________________
flatten_2 (Flatten)          (None, 3960)              0         
_________________________________________________________________
dense_8 (Dense)              (None, 1000)              3961000   
_________________________________________________________________
dropout_9 (Dropout)          (None, 1000)              0         
_________________________________________________________________
dense_9 (Dense)              (None, 200)               200200    
_________________________________________________________________
dropout_10 (Dropout)         (None, 200)               0         
_________________________________________________________________
dense_10 (Dense)             (None, 50)                10050     
_________________________________________________________________
dropout_11 (Dropout)         (None, 50)                0         
_________________________________________________________________
dense_11 (Dense)             (None, 6)                 306       
=================================================================
Total params: 4,172,676
Trainable params: 4,172,676
Non-trainable params: 0
_________________________________________________________________
data_dir: C:\Users\hbkm9\Documents\Projects\CYB\Experiment1\CYB005\Data
window_size: 1000
delay: 1000
gap_windows: None
stride: 5
freq_factor: 20
file_names: ['005_DownSit01.json', '005_DownSit03.json', '005_DownSit05.json', '005_DownSit07.json', '005_DownSit09.json', '005_DownSit11.json']
…
