Model: "Depthwise_model"
_________________________________________________________________
Layer (type)                 Output Shape              Param #   
=================================================================
reshape_25 (Reshape)         (None, 1, 1000, 8)        0         
_________________________________________________________________
depthwise_conv2d_50 (Depthwi (None, 1, 1000, 40)       640       
_________________________________________________________________
max_pooling2d_50 (MaxPooling (None, 1, 166, 40)        0         
_________________________________________________________________
depthwise_conv2d_51 (Depthwi (None, 1, 166, 120)       480       
_________________________________________________________________
max_pooling2d_51 (MaxPooling (None, 1, 33, 120)        0         
_________________________________________________________________
dropout_150 (Dropout)        (None, 1, 33, 120)        0         
_________________________________________________________________
flatten_25 (Flatten)         (None, 3960)              0         
_________________________________________________________________
dense_150 (Dense)            (None, 1000)              3961000   
_________________________________________________________________
dropout_151 (Dropout)        (None, 1000)              0         
_________________________________________________________________
dense_151 (Dense)            (None, 200)               200200    
_________________________________________________________________
dropout_152 (Dropout)        (None, 200)               0         
_________________________________________________________________
dense_152 (Dense)            (None, 200)               40200     
_________________________________________________________________
dropout_153 (Dropout)        (None, 200)               0         
_________________________________________________________________
dense_153 (Dense)            (None, 100)               20100     
_________________________________________________________________
dropout_154 (Dropout)        (None, 100)               0         
_________________________________________________________________
dense_154 (Dense)            (None, 50)                5050      
_________________________________________________________________
dropout_155 (Dropout)        (None, 50)                0         
_________________________________________________________________
dense_155 (Dense)            (None, 6)                 306       
=================================================================
Total params: 4,227,976
Trainable params: 4,227,976
Non-trainable params: 0
_________________________________________________________________
data_dir: C:\Users\hbkm9\Documents\Projects\CYB\Experiment1\CYB005\Data
window_size: 1000
delay: 1000
gap_windows: None
stride: 20
freq_factor: 20
file_names: ['005_UpStair11.json', '005_UpStair13.json', '005_UpStair15.json', '005_UpStair17.json', '005_UpStair19.json', '005_UpStair21.json', '005_UpStair23.json', '005_UpStair25.json', '005_UpStair27.json', '005_UpStair29.json']
…
