Model: "Conv2D_Model"
_________________________________________________________________
Layer (type)                 Output Shape              Param #   
=================================================================
conv2d_4 (Conv2D)            (None, 61, 40, 4)         3204      
_________________________________________________________________
max_pooling2d_4 (MaxPooling2 (None, 30, 20, 4)         0         
_________________________________________________________________
conv2d_5 (Conv2D)            (None, 30, 20, 12)        444       
_________________________________________________________________
max_pooling2d_5 (MaxPooling2 (None, 15, 20, 12)        0         
_________________________________________________________________
dropout_10 (Dropout)         (None, 15, 20, 12)        0         
_________________________________________________________________
flatten_2 (Flatten)          (None, 3600)              0         
_________________________________________________________________
dense_10 (Dense)             (None, 1000)              3601000   
_________________________________________________________________
dropout_11 (Dropout)         (None, 1000)              0         
_________________________________________________________________
dense_11 (Dense)             (None, 200)               200200    
_________________________________________________________________
dropout_12 (Dropout)         (None, 200)               0         
_________________________________________________________________
dense_12 (Dense)             (None, 100)               20100     
_________________________________________________________________
dropout_13 (Dropout)         (None, 100)               0         
_________________________________________________________________
dense_13 (Dense)             (None, 100)               10100     
_________________________________________________________________
dropout_14 (Dropout)         (None, 100)               0         
_________________________________________________________________
dense_14 (Dense)             (None, 6)                 606       
=================================================================
Total params: 3,835,654
Trainable params: 3,835,654
Non-trainable params: 0
_________________________________________________________________
data_dir: C:\Users\hbkm9\Documents\Projects\CYB\Experiment1\CYB004\Data
window_size: 400
delay: 400
gap_windows: None
stride: 5
freq_factor: 20
file_names: ['004_Walk01.json', '004_Wal
…
