Model: "Depthwise_model"
_________________________________________________________________
Layer (type)                 Output Shape              Param #   
=================================================================
reshape_7 (Reshape)          (None, 1, 400, 7)         0         
_________________________________________________________________
depthwise_conv2d_14 (Depthwi (None, 1, 400, 35)        560       
_________________________________________________________________
max_pooling2d_14 (MaxPooling (None, 1, 66, 35)         0         
_________________________________________________________________
depthwise_conv2d_15 (Depthwi (None, 1, 66, 105)        420       
_________________________________________________________________
max_pooling2d_15 (MaxPooling (None, 1, 13, 105)        0         
_________________________________________________________________
dropout_42 (Dropout)         (None, 1, 13, 105)        0         
_________________________________________________________________
flatten_7 (Flatten)          (None, 1365)              0         
_________________________________________________________________
dense_42 (Dense)             (None, 1000)              1366000   
_________________________________________________________________
dropout_43 (Dropout)         (None, 1000)              0         
_________________________________________________________________
dense_43 (Dense)             (None, 200)               200200    
_________________________________________________________________
dropout_44 (Dropout)         (None, 200)               0         
_________________________________________________________________
dense_44 (Dense)             (None, 200)               40200     
_________________________________________________________________
dropout_45 (Dropout)         (None, 200)               0         
_________________________________________________________________
dense_45 (Dense)             (None, 100)               20100     
_________________________________________________________________
dropout_46 (Dropout)         (None, 100)               0         
_________________________________________________________________
dense_46 (Dense)             (None, 50)                5050      
_________________________________________________________________
dropout_47 (Dropout)         (None, 50)                0         
_________________________________________________________________
dense_47 (Dense)             (None, 6)                 306       
=================================================================
Total params: 1,632,836
Trainable params: 1,632,836
Non-trainable params: 0
_________________________________________________________________
data_dir: C:\Users\hbkm9\Documents\Projects\CYB\Experiment1\CYB005\Data
window_size: 400
delay: 400
gap_windows: None
stride: 20
freq_factor: 20
file_names: ['005_Walk01.json', '005_Wa
…
