Model: "Conv2D_Model"
_________________________________________________________________
Layer (type)                 Output Shape              Param #   
=================================================================
reshape_17 (Reshape)         (None, 1, 1000, 8)        0         
_________________________________________________________________
conv2d_34 (Conv2D)           (None, 1, 1000, 40)       4840      
_________________________________________________________________
max_pooling2d_34 (MaxPooling (None, 1, 166, 40)        0         
_________________________________________________________________
conv2d_35 (Conv2D)           (None, 1, 166, 120)       14520     
_________________________________________________________________
max_pooling2d_35 (MaxPooling (None, 1, 33, 120)        0         
_________________________________________________________________
dropout_102 (Dropout)        (None, 1, 33, 120)        0         
_________________________________________________________________
flatten_17 (Flatten)         (None, 3960)              0         
_________________________________________________________________
dense_102 (Dense)            (None, 1000)              3961000   
_________________________________________________________________
dropout_103 (Dropout)        (None, 1000)              0         
_________________________________________________________________
dense_103 (Dense)            (None, 200)               200200    
_________________________________________________________________
dropout_104 (Dropout)        (None, 200)               0         
_________________________________________________________________
dense_104 (Dense)            (None, 200)               40200     
_________________________________________________________________
dropout_105 (Dropout)        (None, 200)               0         
_________________________________________________________________
dense_105 (Dense)            (None, 100)               20100     
_________________________________________________________________
dropout_106 (Dropout)        (None, 100)               0         
_________________________________________________________________
dense_106 (Dense)            (None, 50)                5050      
_________________________________________________________________
dropout_107 (Dropout)        (None, 50)                0         
_________________________________________________________________
dense_107 (Dense)            (None, 6)                 306       
=================================================================
Total params: 4,246,216
Trainable params: 4,246,216
Non-trainable params: 0
_________________________________________________________________
data_dir: C:\Users\hbkm9\Documents\Projects\CYB\Experiment2\CYB101\Data
window_size: 1000
delay: 1000
gap_windows: None
stride: 20
freq_factor: 20
file_names: ['101_Walk01.json', '101_
…
