Model: "Depthwise_model_classifier"
_________________________________________________________________
Layer (type)                 Output Shape              Param #   
=================================================================
reshape_2 (Reshape)          (None, 1, 1000, 8)        0         
_________________________________________________________________
depthwise_conv2d_4 (Depthwis (None, 1, 1000, 40)       640       
_________________________________________________________________
max_pooling2d_4 (MaxPooling2 (None, 1, 166, 40)        0         
_________________________________________________________________
depthwise_conv2d_5 (Depthwis (None, 1, 166, 120)       480       
_________________________________________________________________
max_pooling2d_5 (MaxPooling2 (None, 1, 20, 120)        0         
_________________________________________________________________
dropout_8 (Dropout)          (None, 1, 20, 120)        0         
_________________________________________________________________
flatten_2 (Flatten)          (None, 2400)              0         
_________________________________________________________________
dense_8 (Dense)              (None, 50)                120050    
_________________________________________________________________
dropout_9 (Dropout)          (None, 50)                0         
_________________________________________________________________
dense_9 (Dense)              (None, 30)                1530      
_________________________________________________________________
dropout_10 (Dropout)         (None, 30)                0         
_________________________________________________________________
dense_10 (Dense)             (None, 20)                620       
_________________________________________________________________
dropout_11 (Dropout)         (None, 20)                0         
_________________________________________________________________
dense_11 (Dense)             (None, 5)                 105       
=================================================================
Total params: 123,425
Trainable params: 123,425
Non-trainable params: 0
_________________________________________________________________
data_dir: C:\Users\hbkm9\Documents\Projects\CYB\Experiment2\CYB102\Data
window_size: 1000
delay: 1000
gap_windows: None
stride: 80
freq_factor: 20
file_names: ['102_DownSit01.json', '102_D
…
