Model: "sequential"
_________________________________________________________________
Layer (type)                 Output Shape              Param #   
=================================================================
reshape (Reshape)            (None, 1, 200, 8)         0         
_________________________________________________________________
conv2d (Conv2D)              (None, 1, 200, 40)        4840      
_________________________________________________________________
max_pooling2d (MaxPooling2D) (None, 1, 33, 40)         0         
_________________________________________________________________
conv2d_1 (Conv2D)            (None, 1, 33, 24)         2904      
_________________________________________________________________
max_pooling2d_1 (MaxPooling2 (None, 1, 16, 24)         0         
_________________________________________________________________
dropout (Dropout)            (None, 1, 16, 24)         0         
_________________________________________________________________
flatten (Flatten)            (None, 384)               0         
_________________________________________________________________
dense (Dense)                (None, 200)               77000     
_________________________________________________________________
batch_normalization (BatchNo (None, 200)               800       
_________________________________________________________________
activation (Activation)      (None, 200)               0         
_________________________________________________________________
dropout_1 (Dropout)          (None, 200)               0         
_________________________________________________________________
dense_1 (Dense)              (None, 200)               40200     
_________________________________________________________________
batch_normalization_1 (Batch (None, 200)               800       
_________________________________________________________________
activation_1 (Activation)    (None, 200)               0         
_________________________________________________________________
dropout_2 (Dropout)          (None, 200)               0         
_________________________________________________________________
dense_2 (Dense)              (None, 100)               20100     
_________________________________________________________________
batch_normalization_2 (Batch (None, 100)               400       
_________________________________________________________________
activation_2 (Activation)    (None, 100)               0         
_________________________________________________________________
dropout_3 (Dropout)          (None, 100)               0         
_________________________________________________________________
dense_3 (Dense)              (None, 50)                5050      
_________________________________________________________________
batch_normalization_3 (Batch (None, 50)                200       
_________________________________________________________________
activation_3 (Activation)    (None, 50)                0         
_________________________________________________________________
dropout_4 (Dropout)          (None, 50)                0         
_________________________________________________________________
dense_4 (Dense)              (None, 6)                 306       
=================================================================
Total params: 152,600
Trainable params: 151,500
Non-trainable params: 1,100
_________________________________________________________________
data_dir: C:\Users\hbkm9\Documents\Projects\CYB\Experiment1\CYB004\Data
window_size: 200
delay: 200
gap_windows: None
stride: 1
freq_factor: 20
file_names: ['004_Walk01.json', '004_Wal
…
