Model: "Depthwise_model"
_________________________________________________________________
Layer (type)                 Output Shape              Param #   
=================================================================
reshape_1 (Reshape)          (None, 1, 400, 6)         0         
_________________________________________________________________
depthwise_conv2d_2 (Depthwis (None, 1, 400, 30)        480       
_________________________________________________________________
max_pooling2d_2 (MaxPooling2 (None, 1, 66, 30)         0         
_________________________________________________________________
depthwise_conv2d_3 (Depthwis (None, 1, 66, 90)         360       
_________________________________________________________________
max_pooling2d_3 (MaxPooling2 (None, 1, 13, 90)         0         
_________________________________________________________________
dropout_6 (Dropout)          (None, 1, 13, 90)         0         
_________________________________________________________________
flatten_1 (Flatten)          (None, 1170)              0         
_________________________________________________________________
dense_6 (Dense)              (None, 1000)              1171000   
_________________________________________________________________
dropout_7 (Dropout)          (None, 1000)              0         
_________________________________________________________________
dense_7 (Dense)              (None, 200)               200200    
_________________________________________________________________
dropout_8 (Dropout)          (None, 200)               0         
_________________________________________________________________
dense_8 (Dense)              (None, 200)               40200     
_________________________________________________________________
dropout_9 (Dropout)          (None, 200)               0         
_________________________________________________________________
dense_9 (Dense)              (None, 100)               20100     
_________________________________________________________________
dropout_10 (Dropout)         (None, 100)               0         
_________________________________________________________________
dense_10 (Dense)             (None, 50)                5050      
_________________________________________________________________
dropout_11 (Dropout)         (None, 50)                0         
_________________________________________________________________
dense_11 (Dense)             (None, 6)                 306       
=================================================================
Total params: 1,437,696
Trainable params: 1,437,696
Non-trainable params: 0
_________________________________________________________________
data_dir: C:\Users\hbkm9\Documents\Projects\CYB\Experiment1\CYB004\Data
window_size: 400
delay: 400
gap_windows: None
stride: 20
freq_factor: 20
file_names: ['004_Walk01.json', '004_Wa
…
