Model: "Depthwise_model_classifier"
_________________________________________________________________
Layer (type)                 Output Shape              Param #   
=================================================================
reshape (Reshape)            (None, 1, 400, 8)         0         
_________________________________________________________________
depthwise_conv2d (DepthwiseC (None, 1, 400, 24)        384       
_________________________________________________________________
max_pooling2d (MaxPooling2D) (None, 1, 66, 24)         0         
_________________________________________________________________
depthwise_conv2d_1 (Depthwis (None, 1, 66, 48)         192       
_________________________________________________________________
max_pooling2d_1 (MaxPooling2 (None, 1, 13, 48)         0         
_________________________________________________________________
dropout (Dropout)            (None, 1, 13, 48)         0         
_________________________________________________________________
flatten (Flatten)            (None, 624)               0         
_________________________________________________________________
dense (Dense)                (None, 200)               125000    
_________________________________________________________________
batch_normalization (BatchNo (None, 200)               800       
_________________________________________________________________
activation (Activation)      (None, 200)               0         
_________________________________________________________________
dropout_1 (Dropout)          (None, 200)               0         
_________________________________________________________________
dense_1 (Dense)              (None, 100)               20100     
_________________________________________________________________
batch_normalization_1 (Batch (None, 100)               400       
_________________________________________________________________
activation_1 (Activation)    (None, 100)               0         
_________________________________________________________________
dropout_2 (Dropout)          (None, 100)               0         
_________________________________________________________________
dense_2 (Dense)              (None, 100)               10100     
_________________________________________________________________
batch_normalization_2 (Batch (None, 100)               400       
_________________________________________________________________
activation_2 (Activation)    (None, 100)               0         
_________________________________________________________________
dropout_3 (Dropout)          (None, 100)               0         
_________________________________________________________________
dense_3 (Dense)              (None, 50)                5050      
_________________________________________________________________
batch_normalization_3 (Batch (None, 50)                200       
_________________________________________________________________
activation_3 (Activation)    (None, 50)                0         
_________________________________________________________________
dropout_4 (Dropout)          (None, 50)                0         
_________________________________________________________________
dense_4 (Dense)              (None, 20)                1020      
_________________________________________________________________
batch_normalization_4 (Batch (None, 20)                80        
_________________________________________________________________
activation_4 (Activation)    (None, 20)                0         
_________________________________________________________________
dropout_5 (Dropout)          (None, 20)                0         
_________________________________________________________________
dense_5 (Dense)              (None, 3)                 63        
=================================================================
Total params: 163,789
Trainable params: 162,849
Non-trainable params: 940
_________________________________________________________________
data_dir: C:\Users\hbkm9\Documents\Projects\CYB\Experiment1\CYB004\Data_p
window_size: 400
delay: 400
gap_windows: None
stride: 1
freq_factor: 20
file_names: ['004_ParamDownStair02.json
…
